model/snek_mdl.pth (torch, 35672 bytes, 4 tensors)

linear1.weight f4 [400, 17]
000000 6c a8 d5 bc 9b 4a ff bc 98 97 72 be aa 00 0f be
       -0.026081286 -0.031163504 -0.23690641 -0.13965097
000010 f1 52 b2 be 5f 3a c0 3d e8 16 5a 3d b3 3a 60 bd
       -0.34828904 0.093861334 0.0532445 -0.05474348
000020 a2 52 78 be 73 c9 1a bf e9 75 e6 bd cd b6 c1 3e
       -0.24250272 -0.6046364 -0.11252958 0.37834778
000030 12 34 fa 3e d2 35 9b be a9 67 c0 3d 2f 9c c6 bd
       0.48867851 -0.303145 0.093947716 -0.096977584
000040 18 51 b3 3c 04 63 23 3a 27 11 00 be 41 f9 c2 be
       0.021889254 0.0006232711 -0.12506543 -0.3808079
000050 62 9f 65 3c 5f d7 d1 bd 41 f3 29 be 11 c4 8d bc
       0.014015051 -0.10246157 -0.165967 -0.017305406
000060 9e c3 b1 be 96 e7 7b bd a1 15 5c 3e 9c 76 d5 3c
       -0.34719557 -0.061500154 0.21492626 0.026057534
000070 1f f6 7d be 76 26 dd bd c7 0c f9 bd fe a6 e0 3c
       -0.24800919 -0.107983515 -0.1216064 0.027423378
000080 34 f9 ac bd 2f 44 cf 3c 17 a2 6b bd 37 20 8a be
       -0.08445969 0.025301067 -0.057527628 -0.26977703
000090 0b 83 bf be c7 1f 0a b7 88 4e a8 be 64 26 33 bd
       -0.37404665 -8.23284e-06 -0.32872415 -0.043737784
0000a0 43 3a 87 be 25 3d 91 3d 24 99 41 bd d6 12 91 bd
       -0.26411638 0.070917405 -0.047265187 -0.07083671
0000b0 9b 64 91 be 18 9d 4d be bf 69 23 3c 70 76 8c bd
       -0.28397068 -0.20079458 0.009973942 -0.06858528
0000c0 d8 2f e7 3c d5 36 36 be f3 4c 04 3e db ec 48 3c
       0.028221056 -0.17794354 0.12919979 0.012263502
0000d0 13 11 34 bf 6a 5a 80 bd 92 34 ad 3d 95 e5 5a be
       -0.70338553 -0.06267245 0.084572926 -0.21376641
0000e0 28 6b a4 3d c4 1b bc 3d 55 cf dc bd a8 ff e5 3b
       0.08028251 0.091849834 -0.10781733 0.007019002
0000f0 fe 68 c5 be da d3 d1 3c 34 75 fd be 65 75 c9 3e
       -0.38556665 0.025613714 -0.4950348 0.39347377
000100 a6 5e 83 bd 3b 35 29 3e fb 54 1b be 3e 7f b3 3e
       -0.06414537 0.16524212 -0.15169136 0.35058016
000110 21 7f 93 3c ea 09 6f be 5c 70 a7 be 24 6e b6 be
       0.018004956 -0.23343626 -0.3270291 -0.35630906
000120 98 7c 86 be 17 bb cf be 00 1d d3 be 44 a9 a9 be
       -0.26266932 -0.40572426 -0.41233063 -0.33136952
000130 41 f3 5d be 14 da 78 be ec 7f 02 bd 5f 16 ab 3d
       -0.21674825 -0.2430194 -0.031860277 0.08353876
000140 57 2e 19 3e a4 7a 8f bd 53 64 01 3b e6 0b 9e 3d
       0.14959083 -0.07005814 0.0019743636 0.07717113
000150 d8 fb 5d 3e 0f 7d 9a bc f3 18 5e be 14 27 ce 3b
       0.21678102 -0.01885846 -0.21689205 0.0062912796
000160 72 b8 b0 be ef 6d b9 be 68 9a af 3d fe 82 8c 3d
       -0.3451572 -0.36216685 0.085743725 0.06860922
000170 ea 85 61 be bc 8d 53 be bf ce c6 bd 38 7e 77 be
       -0.2202374 -0.20659536 -0.097074024 -0.24169242
000180 87 23 fb 3d 71 ef 06 be e9 4a 01 be 80 68 2f 3d
       0.12262636 -0.13177277 -0.12626232 0.04282427
000190 a7 86 aa 3c 65 a8 b3 3d 08 59 df bd fa 15 20 be
       0.02081616 0.08772353 -0.10905653 -0.15633383
0001a0 b1 3f 16 be 01 72 85 3d 5c 77 99 be fd 8c 98 3e
       -0.14672734 0.06515885 -0.29973876 0.29795066
0001b0 cf 53 1c be a9 0a d8 bd 56 a8 2f 3c f0 df c3 be
       -0.15266345 -0.10548908 0.010721287 -0.38256788
0001c0 d6 09 56 3e ec ce aa 3e 6f 64 14 3f f8 1c 33 be
       0.2090219 0.33360994 0.5796575 -0.1749152
0001d0 26 bd 78 3d ca 07 49 be 1b a1 82 3e cc 43 4f bd
       0.06072726 -0.19631878 0.2551354 -0.050601766
0001e0 5c 11 b4 be 74 73 9d be fd 51 2f 3d 72 35 5a 3a
       -0.35169494 -0.30752146 0.0428028 0.0008324004
0001f0 6f 48 1a be 18 aa 82 be 73 d3 46 3d 20 56 ab be
       -0.15066694 -0.25520396 0.048541497 -0.33464146
000200 73 47 d3 be 2b 9a b1 bc 62 61 7c 3c f6 9b dd 3c
       -0.4126545 -0.021679958 0.015404077 0.027051907
000210 b0 50 3b 3e 44 fb 0f bc c4 ab 93 be 22 9a a2 3d
       0.18292499 -0.008787934 -0.28841984 0.07939555
000220 ef fb a8 3d 72 8c c9 be df 64 ce bd 7b 10 86 be
       0.082511775 -0.39364964 -0.100778334 -0.2618445
000230 e0 9b db be bd df 06 bf ef 52 bd be 54 d9 ca be
       -0.4289236 -0.5268515 -0.36977336 -0.39618933
000240 04 30 ad be 40 4e 61 bd 3f 1f 5e 3d 71 62 26 be
       -0.33825696 -0.055006266 0.054229017 -0.1624849
000250 d5 ac 9e 3d 80 b2 4d 3d 19 52 62 3e 5e 2a c0 3c
       0.07747809 0.05021906 0.2210163 0.023457702
000260 0b 9d 1c 3e 81 65 ae be 93 fb 10 bd 6c 86 26 be
       0.15294282 -0.34061816 -0.03539617 -0.16262215
000270 87 c4 94 ba 35 28 f0 bd a0 8a 87 be 08 9d 84 3d
       -0.0011350074 -0.11726419 -0.2647295 0.06475264
000280 90 89 37 be 0a 56 59 bd 54 1d 1b be b9 88 c8 bd
       -0.1792357 -0.05306057 -0.15147907 -0.09791703
000290 bd 32 cb bd 38 28 72 be 15 35 97 bd 0f 05 ed bd
       -0.09921787 -0.23648155 -0.073831715 -0.115732305
0002a0 8d 83 2b 3e e4 53 39 3e e5 cb e0 bd 04 77 f3 3d
       0.16749401 0.18098408 -0.1097639 0.11887935
0002b0 5d b4 d8 bd 7d 57 3f 3c 1e 0a a4 be 6d 4a 64 bc
       -0.105812766 0.011678574 -0.3203897 -0.01393376
0002c0 82 e7 54 be d1 3f c1 bd 35 f2 bb 3e 98 c1 2f be
       -0.20791438 -0.09436 0.36708227 -0.17163694
0002d0 13 04 91 3e 5d 24 63 be 49 cc 0b 3d 7b d9 34 be
       0.2832342 -0.2218184 0.03413037 -0.17661087
0002e0 d5 12 0c 3e f5 db d6 3d ef e1 f5 3c 49 62 5c bd
       0.13679059 0.10491172 0.03001496 -0.05380467
0002f0 aa 32 cc 3a bb 00 8d 3d 10 03 7c be 33 b6 fd be
       0.0015579064 0.06884905 -0.24610543 -0.4955307
000300 3c a9 c8 bc 14 c1 11 3e 85 c2 ca 3d c5 77 27 3e
       -0.02449476 0.1423381 0.09900383 0.16354282
000310 40 c9 50 be 27 da 1e 3e d6 aa a3 be 3e ea 5d 3e
       -0.20389271 0.15512906 -0.31966275 0.21671388
000320 fa 69 fa bd 47 9c 80 3d 06 5d c3 3d 2f 00 92 3d
       -0.12227245 0.062798075 0.09539227 0.07128941
000330 37 93 39 bb 66 2b b5 3d bb cd 08 3d 8e 4d d8 be
       -0.0028316507 0.08846168 0.033399325 -0.4224667
000340 3e 15 5c be 31 59 47 3e 9d ec 9c 3c 8e d3 a3 bd
       -0.21492478 0.19467618 0.019155795 -0.07999335
000350 73 eb a0 bd ac 70 ab 3e 04 79 82 be 20 a9 6d 3e
       -0.078574084 0.334844 -0.25482953 0.23209047
000360 cb 1b 23 3e 35 bc d4 3e f3 db a0 be a9 5b ba 3d
       0.15928571 0.4154984 -0.31417808 0.09099514
000370 d6 26 50 be 84 f2 7d be 2d c4 fc bd 9e c1 4f 3c
       -0.20327315 -0.24799544 -0.12342105 0.012680439
000380 29 17 90 3d ab 8e a2 bd 06 d5 a5 be 5e 46 55 be
       0.070356674 -0.07937368 -0.32389086 -0.20827624
000390 87 15 64 be 85 8e d4 bb fc f2 b2 3d 43 6b ae bb
       -0.22273837 -0.006486716 0.08737752 -0.005322845
0003a0 3b b4 4b be 10 c1 3c be e8 25 5e 3b 7c 2f 2c be
       -0.19892971 -0.18433022 0.0033897106 -0.16814989
0003b0 be 91 38 be f8 dc 17 be 0f d5 e8 bb 71 5b 38 3c
       -0.18024346 -0.14830387 -0.0071054767 0.01125227
0003c0 9e c8 b6 be 37 57 c5 bc fc e5 54 be 0b 7a a7 be
       -0.35699934 -0.024089439 -0.20790857 -0.327103
0003d0 8c 73 dd bd 90 44 a2 be 88 c9 ec 3c 84 9e e0 3d
       -0.108130544 -0.31692934 0.028904691 0.109677345
0003e0 44 23 89 be 39 37 98 be b3 5f fd bd 8b da 89 3d
       -0.26784718 -0.29729632 -0.12371769 0.06731137
0003f0 a1 0b 96 bc 77 a3 95 be 45 0c 8a 3e c8 7c 8d bd
       -0.018316092 -0.29226276 0.26962486 -0.06908566

linear1.bias f4 [400]
000000 26 6c ae 3e 72 ee 80 be 21 89 46 3d b3 f7 4d 3e
       0.34066886 -0.2518192 0.04847062 0.20114021
000010 29 6a a0 3e 7d 14 ad 3c dc 4f 94 3e 68 c1 83 3d
       0.31330994 0.021127934 0.28967178 0.06433374
000020 30 da 10 bd 10 c8 14 be f8 6b 53 3e e1 21 e2 3d
       -0.03536433 -0.14529443 0.20646656 0.11041618
000030 3b 31 8f 3e ce 11 1d bb 03 0e 99 bd 13 7a c2 be
       0.27967247 -0.0023966911 -0.07473376 -0.3798376
000040 81 b6 1f be 0d c4 cd bd b1 7d 3d 3d 49 0e 97 be
       -0.15596963 -0.10047159 0.046262447 -0.29503086
000050 24 a0 98 3b 54 e8 75 be 87 f6 59 be 66 c5 6a 3e
       0.004657762 -0.24014407 -0.21285449 0.22926864
000060 58 fe 19 3e ff 01 7d 3b ba 38 5b 3d dc 9d bf bc
       0.1503843 0.0038605926 0.053520896 -0.023390703
000070 c9 66 8d bd 88 a5 fc bb 16 c9 97 bc 9c b7 65 be
       -0.0690437 -0.0077101626 -0.018528502 -0.22433323
000080 67 7c 20 3d 12 7e d1 3c de 34 98 be 89 17 92 3e
       0.03918114 0.02557281 -0.29727834 0.2853358
000090 b4 6c e0 3d 8d af af be aa 64 56 be ff 1b 01 3e
       0.109582335 -0.34313622 -0.20936838 0.12608336
0000a0 53 9d 62 bb f6 56 74 3e 11 2d a0 be 0f 47 44 be
       -0.0034578636 0.23861298 -0.31284383 -0.19167732
0000b0 20 3b a3 be 10 5a 97 be ac 82 16 bc 34 8e 03 be
       -0.31881046 -0.295609 -0.009186428 -0.12847215
0000c0 3e 73 80 3d 12 ff ae be 3a 5b 95 bd a7 69 0c be
       0.06271981 -0.34178978 -0.07292791 -0.13712178
0000d0 25 c4 da 3d 8c 8b dd bd 67 3e 14 3e 2c 61 52 be
       0.10681943 -0.10817632 0.1447693 -0.2054488
0000e0 5e ab 37 bd 00 72 cc be 9d db 43 3e 95 14 c3 bd
       -0.044841163 -0.39930725 0.19126745 -0.0952541
0000f0 cd 3d 80 3c 22 44 a6 3c dd 0d 6c be 7d f2 09 3e
       0.015654469 0.02029616 -0.23052163 0.13471408
000100 59 d3 60 bd 66 77 0a be f1 5e 89 3e 90 94 78 3d
       -0.054889057 -0.1352211 0.26830247 0.060688555
000110 3e 9c b5 bd 17 01 57 be 0e fc b5 3d 32 69 32 be
       -0.088676915 -0.2099651 0.08885966 -0.17422941
000120 7a 6d 31 be 84 a7 b4 bd f5 c9 83 be 84 03 a4 bd
       -0.17326918 -0.088210136 -0.25740018 -0.08008483
000130 27 6b 96 be 24 2b 94 be db 0d c1 be 84 32 54 3c
       -0.29378626 -0.28939164 -0.37705883 0.012951497
000140 c6 19 8b 3e be b7 02 3e 3e ed 04 be b0 15 5e 3d
       0.271681 0.12765405 -0.12981126 0.0542199
000150 2c c5 69 3d 71 13 b6 be a3 7f 11 3e 3c 74 40 3e
       0.057072803 -0.35561708 0.14208846 0.1879434
000160 53 ef 15 3d 86 91 36 3e c1 60 f7 3d 01 db 87 be
       0.03660519 0.1782895 0.12079001 -0.26534274
000170 77 73 dc be 8f 1f ed bd 71 d5 be bd 60 cc 9b bd
       -0.43056843 -0.11578285 -0.093180545 -0.07607341
000180 a4 4d 3f 3e 1d ac ba be ef 0b ff bd 61 43 43 be
       0.18681961 -0.36459437 -0.12453448 -0.19068672
000190 44 41 3d be e5 17 0f be 49 70 3f bc 35 8d b4 bd
       -0.18481928 -0.13973959 -0.011684486 -0.088159956
0001a0 8a 15 c5 3d eb 30 66 be d9 11 f1 3d 1d 67 d5 bd
       0.09623249 -0.22479598 0.11770982 -0.10420058
0001b0 41 39 17 bd cd 75 24 be 57 b3 86 be 3b cb 83 be
       -0.036919836 -0.16060562 -0.263087 -0.2574099
0001c0 fa aa 49 be da 4e 50 bc 83 d8 de bd 0a 43 af bd
       -0.19694129 -0.012714112 -0.1088114 -0.085577086
0001d0 20 b4 42 be 4f 53 99 3d c3 eb 10 be c0 56 58 be
       -0.19014025 0.07486593 -0.14152436 -0.21126842
0001e0 6a f8 80 be 71 0f 73 be 1e a1 91 bd 95 73 90 3d
       -0.25189525 -0.23736359 -0.07110809 0.070532955
0001f0 1a 21 3d be cb 27 b9 be cd 1a 5d be 80 9c b1 bd
       -0.18469658 -0.36163172 -0.21592255 -0.08672428
000200 a4 a7 40 be 1f 1e 54 3b 6a 75 6b bc 7a c0 b7 be
       -0.1881395 0.0032366586 -0.014371255 -0.35889035
000210 54 03 cf be 6e fc 43 be ec 53 03 3e 61 db 56 be
       -0.40432227 -0.19139263 0.12824982 -0.20982124
000220 5b 0c f6 3d d2 cc 83 be 77 15 35 be 9b d8 84 3d
       0.12014075 -0.25742203 -0.1768397 0.06486627
000230 4c 06 9a bd f9 b9 8f be 2b 75 81 be c6 78 48 bc
       -0.07520732 -0.28071573 -0.25284705 -0.012235826
000240 75 b1 8a be be 38 56 be f3 6e d2 be 82 9d d5 bd
       -0.27088514 -0.20920083 -0.41100273 -0.10430433
000250 fc 83 93 be c9 33 92 bc 14 40 c3 be e4 98 10 3e
       -0.28811634 -0.017846959 -0.38134825 0.14120823
000260 a2 ab b2 3d 8b 33 c4 3d 0d 1e a3 bd ba b1 6e 3c
       0.087241426 0.095801435 -0.07964716 0.0145687405
000270 e2 67 7f 3c 52 93 bd bd d9 31 fb 3c 40 f0 02 3e
       0.015588732 -0.09256615 0.030663418 0.1278696
000280 f8 65 11 be 70 74 86 be e3 15 4d 3e 2e ac 49 3e
       -0.14199054 -0.2626071 0.2002788 0.19694588
000290 41 e2 b4 3d e2 de d2 3d 13 34 84 3d de d3 ad bd
       0.08832217 0.10296418 0.06455245 -0.08487676
0002a0 0f 10 0f be ef e5 cb bd b2 2c 0f 3e e7 0f d4 be
       -0.1397097 -0.09955966 0.13981894 -0.41418383
0002b0 c6 cd 08 be cf 55 ba be 86 f3 d0 be ed 4d bf be
       -0.13359746 -0.36393592 -0.40810794 -0.3736414
0002c0 28 8b 03 3e a1 e1 61 be f1 23 8a be 45 22 e2 be
       0.12846053 -0.22058727 -0.26980546 -0.4416677
0002d0 ae 33 a4 3d 75 01 9a bd 54 17 99 bd ba d6 2e be
       0.080176696 -0.07519809 -0.074751526 -0.17074099
0002e0 eb 2d 46 be ab f5 4e 3e 9c f2 d9 be 8f 76 30 3d
       -0.19353454 0.20210902 -0.4256791 0.043081816
0002f0 a8 df 99 be b9 9c da be fa ec 87 be f4 dc b2 bd
       -0.3005345 -0.42697695 -0.26547986 -0.0873355
000300 0c b8 cd 3d 1a da 3b 3d f3 49 10 be 42 a4 09 be
       0.1004487 0.045862295 -0.1409071 -0.13441566
000310 73 7f fd bd 46 ee 8d 3d c9 62 b7 3d e3 8b 5a be
       -0.12377825 0.06930213 0.08954389 -0.21342425
000320 d1 0f a4 be d1 ec 7b 3d 4f 79 93 bc f0 ca 85 be
       -0.32043317 0.061505143 -0.01800218 -0.26131392
000330 6e 73 50 bd b2 2b 79 be ef 18 d9 bd 00 27 4c be
       -0.050891332 -0.24333075 -0.10600459 -0.19936752
000340 cf f6 1c be 58 75 94 bd 13 4c 46 be 74 59 30 3c
       -0.15328525 -0.07248944 -0.19364958 0.010763515
000350 54 fd 83 be 39 be df bd 3a 57 34 be 93 02 65 be
       -0.25779212 -0.10924954 -0.176114 -0.22364263
000360 b1 a8 23 3e 0d a5 a4 bd 49 09 f1 bd 4b cd 66 be
       0.1598232 -0.080392934 -0.11769349 -0.2253925
000370 ba a1 c0 be 06 27 4c be c7 5a c1 3e 31 f6 4d be
       -0.37623388 -0.19936761 0.3776457 -0.20113446
000380 a9 a1 91 b8 b0 45 a4 bd 53 f0 27 be 45 9c 99 3d
       -6.94425e-05 -0.08021104 -0.1640027 0.07500509
000390 22 00 11 3e 17 98 9d 3c 23 9d 2d be c1 98 64 be
       0.14160207 0.019237561 -0.16954474 -0.22323896
0003a0 3c 1d 31 be 58 29 87 be 2f 3f a2 be 9e 6b a1 be
       -0.17296308 -0.2639873 -0.3168883 -0.31527418
0003b0 6c 2c 59 be c5 64 9a bc 59 b2 75 be f6 cd 74 3d
       -0.21208352 -0.018846879 -0.23993815 0.059766732
0003c0 f0 f4 78 be 30 5a a5 be 31 3a a3 be 12 23 7d be
       -0.24312186 -0.3229537 -0.31880334 -0.2472041
0003d0 94 49 1c be c3 ac 2a be dc 27 6e 3c 85 d4 7f be
       -0.15262443 -0.16667466 0.01453587 -0.24983414
0003e0 c2 c1 ae 3c 03 69 83 be f3 34 c4 bd 89 0c f2 3d
       0.021332625 -0.25666055 -0.09580412 0.11818797
0003f0 9f de 93 3d 30 5e 86 bd 95 d5 a7 be 98 85 66 be
       0.07220196 -0.065609336 -0.32780138 -0.225119

linear2.weight f4 [3, 400]
000000 eb 9a e7 bc c6 f9 14 bd ef 51 fb bb 6d e4 bf bc
       -0.028272113 -0.036371015 -0.0076696794 -0.023424352
000010 8c 8c ac bc c5 90 4f bd 1b ce 89 bd 51 b8 c7 3c
       -0.021063112 -0.050675172 -0.067287646 0.024379881
000020 fe c5 68 bd 09 39 12 3c 34 34 83 3b 34 d1 dd bc
       -0.056829445 0.008924731 0.004004026 -0.027077295
000030 d7 61 18 bd 5e 05 b1 bc 4a c5 2f 3e 02 68 27 3e
       -0.037202682 -0.021609005 0.17165104 0.1634827
000040 97 43 34 3d 8a 35 a9 3d e7 b3 3f bc ff bd 4e 3d
       0.04400977 0.08262165 -0.011700607 0.050474163
000050 98 2c a5 bd e7 88 1c bc 0e dc 81 3e 22 86 5e bd
       -0.08065146 -0.009554124 0.253632 -0.054327138
000060 83 1f 41 3c e2 e0 8a 3c 21 35 09 3d 2f 81 2e bb
       0.011787298 0.016952936 0.033497933 -0.0026627292
000070 e1 22 3d bd fc 95 19 3c 21 c7 fc 3d 57 e8 a6 bc
       -0.04617584 0.009374138 0.12342668 -0.02037446
000080 14 7e fb 3c 1f 61 1c 3b e2 ee 39 bc a2 a7 22 3d
       0.030699767 0.00238616 -0.011348458 0.03971065
000090 c0 f7 01 bc 4c 83 eb bb 8c 07 a8 bb f6 84 b5 3d
       -0.007932603 -0.0071872827 -0.005127853 0.08863251
0000a0 72 06 d8 3b 97 30 8b bd 32 c8 ec bc 0a 95 6e bd
       0.006592565 -0.06796377 -0.028904054 -0.058247603
0000b0 28 2f 9d bc 09 5b be bb 90 fa 66 bc d8 98 28 bd
       -0.019187525 -0.005809192 -0.014097825 -0.04116139
0000c0 7d 7c 29 bd b0 eb 56 3d d3 ce a7 bd 12 3d 2b 3e
       -0.041378487 0.052470863 -0.081937455 0.16722515
0000d0 1e 0f 50 bd bb 2f 0e bd c4 5c 14 bd 0b e4 89 3d
       -0.050795667 -0.034713488 -0.03622128 0.06732949
0000e0 47 f3 19 3c ec 52 5b bb cc 91 50 bd 62 3c a7 3d
       0.009396381 -0.0033466173 -0.050920293 0.08165814
0000f0 28 0b 19 3e f3 98 6a bb 60 29 20 bd a7 3b 00 3c
       0.14945662 -0.0035796731 -0.03910196 0.007826722
000100 3d 9b 83 bd 5d 32 89 bd 41 ba a4 bd 23 d5 0b 3b
       -0.06426094 -0.06699059 -0.080433376 0.0021336756
000110 9d 15 3e bd a1 3c b1 bc e7 28 7f 3b 6b 3f c0 bd
       -0.04640733 -0.021635355 0.0038934292 -0.09387096
000120 58 05 6a bd 9e f3 24 bc 00 81 24 3d 05 bf 16 3d
       -0.057134002 -0.0100678485 0.040162086 0.036803264
000130 56 e3 69 3d 4f 4c ed bb 99 f7 b6 bc 2c f7 0b bc
       0.05710157 -0.0072417627 -0.02233486 -0.008542817
000140 c3 99 d2 bd 6a 9c 37 bc 51 1b 32 bd 9d 01 c2 bc
       -0.10283234 -0.011206726 -0.043483082 -0.02368241
000150 94 a6 ea 3c 2c 11 0e 3c 0a 6f cb 3c d0 5a 85 bd
       0.028643884 0.008671086 0.024833221 -0.06511462
000160 cc 14 15 be 73 18 63 bd ad 85 0a bd 5a 56 07 bd
       -0.14558715 -0.05544324 -0.03381889 -0.033041336
000170 af fc c2 bd 61 2a 0f be 20 45 b6 bd 4e 1d 32 be
       -0.09520852 -0.1398101 -0.08899903 -0.17393991
000180 b5 1f 89 bd ac b2 95 bd f2 ad 78 3c c0 dc db 3c
       -0.06695501 -0.073094696 0.015178191 0.02683866
000190 c8 fa 2d bc f1 ca 68 3a a4 5c 3a bc dd 99 2c bd
       -0.010618873 0.0008880338 -0.011374626 -0.042138923
0001a0 68 cb 2c bd 8e c5 dc bc 18 1a d5 bb 51 0e ba 3d
       -0.04218617 -0.02694967 -0.0065033548 0.09084762
0001b0 5c 3f f2 39 e8 93 99 bb 35 82 d3 bb 90 36 16 bd
       0.00046205043 -0.0046868213 -0.006454731 -0.03667313
0001c0 59 3d 23 be d8 4b 05 be e5 48 e6 bb 59 2d 4a 3b
       -0.15941371 -0.13017213 -0.0070277327 0.0030849783
0001d0 04 1d e8 bd db 02 dd bb 70 62 48 3b 51 2b 9c bd
       -0.11333659 -0.006744725 0.0030576251 -0.076254494
0001e0 a5 1b db 3b a2 52 8c 3d bb 7e bc bb 0b 00 6b bc
       0.006686645 0.068516985 -0.005752412 -0.014343272
0001f0 1a 62 84 3d 05 4a ad bd fa 45 2f 3e a6 c2 9b bd
       0.06464024 -0.08461384 0.17116538 -0.076054856
000200 9e 96 cf 3d 8a 74 8a bc 47 72 4f be fe a0 9c bc
       0.1013615 -0.016901273 -0.20258437 -0.019119736
000210 a6 2b 25 bd 3f 21 d3 bc db e8 18 bd 84 e4 ae 39
       -0.04032483 -0.025772689 -0.037331443 0.00033358124
000220 af dd d7 bc 9e 82 1d 3e 06 05 a9 bc d2 1e b3 3d
       -0.026350824 0.15381858 -0.020632278 0.08746113
000230 b4 76 2d bd 88 12 82 3c c0 5d 8a bd f8 a7 e8 3c
       -0.042349532 0.015877977 -0.06756163 0.028400406
000240 19 32 cd bc 7a 98 78 3c f2 a7 cd 3b bc 42 12 be
       -0.025048302 0.015173072 0.006276124 -0.1428327
000250 22 13 e1 bd 95 9c 41 3c 39 68 15 3d 26 dd 02 3c
       -0.109899774 0.011817117 0.036476348 0.007987296
000260 0e 19 05 3d 9e 42 00 be 67 84 a3 3d 22 21 ab bc
       0.032494597 -0.12525412 0.07984238 -0.020889822
000270 3d 46 b1 bd fb 0d 8f bd 73 54 78 3b 83 15 92 3d
       -0.08655975 -0.069850884 0.0037892133 0.07133009
000280 7c ba a9 3c 9a a6 70 3c f9 d4 f1 bc 99 9c 8b bd
       0.020718805 0.014688158 -0.029520499 -0.06816978
000290 aa f9 93 bc 1d 28 4a 3d 69 84 00 3d a6 1e a1 3c
       -0.018063385 0.04935466 0.031376276 0.019667935
0002a0 9e f7 a8 3c c1 ad 81 bb 27 d4 bd 3b c7 99 fa bc
       0.020625886 -0.0039574807 0.005793113 -0.030590905
0002b0 75 24 4e bc aa 7e 7b bd 94 9b 8d 3c 57 01 eb bb
       -0.012581934 -0.061400093 0.0172861 -0.0071717906
0002c0 ae 94 a5 bc 09 dd 90 3a a8 2e a2 3c 53 4e 6f 3c
       -0.020212498 0.0011052202 0.019797638 0.014606076
0002d0 f9 a7 f9 bb 85 73 1f bd 64 3a 6d bc 4e fb 0e bd
       -0.007618901 -0.038928527 -0.014479253 -0.03490763
0002e0 34 d3 72 bd 05 7f ce bc 8b 3b b2 bc cf a7 c0 bc
       -0.05928345 -0.025207052 -0.021756908 -0.023517517
0002f0 e1 8c 20 3c d3 5a f8 bb 3e 53 22 3c 85 68 c6 3d
       0.009799213 -0.0075791865 0.009907542 0.09687904
000300 64 fe 5a bc d3 ff a9 3c 12 7f cb 3b d7 9f 67 bd
       -0.0133663155 0.02075187 0.0062102163 -0.05654892
000310 83 a6 d3 bc f7 47 8c bd b2 dd 01 bd 51 23 18 bc
       -0.025836235 -0.06849664 -0.031705566 -0.009285764
000320 ea cb 0c 3d 4c c2 ba bc 26 db ec 3d 77 39 a6 3c
       0.034374155 -0.022797726 0.11565237 0.020291073
000330 b5 8e 92 3d c2 4f c5 bb 51 ed da 38 ea 05 32 3b
       0.071561255 -0.0060214708 0.00010439254 0.002716417
000340 05 4f 5f 3c 05 32 31 bc 76 33 31 bc 9a 81 a2 bc
       0.01362968 -0.010815148 -0.010815492 -0.01983719
000350 8d fd 7d 3d 31 5b 62 bd 36 94 cb 3a 24 7e 2b bd
       0.062009383 -0.05526275 0.0015531841 -0.041868344
000360 dd f6 b8 bd 2b 18 a8 bd c7 1f a0 bc ee 5e 55 bd
       -0.090314604 -0.08207735 -0.019546403 -0.052092485
000370 71 0f f6 3b c3 da 03 3d f1 76 fb bd 24 64 2e 3d
       0.007509165 0.03219105 -0.12278546 0.04257597
000380 95 30 f2 bb 81 46 99 bd bb c5 be bc 88 fa 44 bc
       -0.0073910453 -0.07484151 -0.023287645 -0.012022622
000390 99 af 07 3e 73 32 09 3e e1 88 78 bd d9 52 5d 3c
       0.13250579 0.13398151 -0.060677413 0.013508522
0003a0 67 77 86 bd 4c a5 48 bb 6d 2e 05 bd 59 3b 5f 3a
       -0.06565743 -0.0030616103 -0.03251498 0.00085156184
0003b0 c5 8e a6 bc e9 5d a0 3d 8e fa be bc 1f de c4 39
       -0.02033175 0.07830412 -0.023312833 0.00037549526
0003c0 b1 ed 19 3d 89 f9 2f 3c f1 e7 1b 3d cd 74 cf 3d
       0.037580196 0.010740646 0.038062993 0.101297
0003d0 11 dc a2 bb 8e 7b 66 3d 3d f5 be bc bb 8b 8e 3c
       -0.0049700816 0.056270175 -0.023310298 0.017400613
0003e0 13 80 80 3c 24 3d 0e be 8f b9 5c 3c 77 d4 17 3b
       0.01568607 -0.13890511 0.013471975 0.002316741
0003f0 f4 ec 64 bd 4d c8 8d bd 4e eb 75 3c 71 23 80 3d
       -0.05589004 -0.0692297 0.015009714 0.0625676

linear2.bias f4 [3]
000000 0f eb 2a be 47 8c d2 be dc a1 e5 be
       -0.1669123 -0.41122648 -0.4485005
