model/snek_mdl.pth (torch, 91992 bytes, 4 tensors)

linear1.weight f4 [500, 41]
000000 e5 9d de bd 58 d0 fa 3c ae 7a 9a bf 1c 33 43 3f
       -0.1086996 0.030616924 -1.2068689 0.7624986
000010 21 f0 3c 3d 01 44 ec 3d 0e 80 90 be ea 47 3e bf
       0.046127442 0.11536408 -0.28222698 -0.7432848
000020 e4 f2 a4 be 2c 12 d5 3e 88 64 b5 3e ea 60 37 3d
       -0.3221656 0.41615427 0.35428262 0.04477016
000030 ce 9c 49 3e 3d 78 b4 bd 6c 8c b3 bc cf fd 8e bd
       0.19688722 -0.08811996 -0.021917544 -0.06982004
000040 f2 a5 61 be 51 0e e3 3d 17 83 96 3d e4 a6 88 bd
       -0.2203596 0.11086715 0.07349222 -0.06672457
000050 4f d5 ae be a2 42 33 be 02 41 50 3d 64 90 4e bc
       -0.34147117 -0.17505887 0.050843246 -0.012607668
000060 52 85 d8 3c 8a 8a 85 3f c5 6e 55 3e 40 0b 8f be
       0.02643076 1.0432904 0.20843036 -0.2793827
000070 bc 40 66 3e 06 8d d1 3e d1 a4 1c 3e f7 ef eb 3e
       0.22485632 0.40927905 0.15297247 0.46081516
000080 5a fb bf 3d 1c e4 e5 3e 22 96 e7 3e fc 05 aa 3e
       0.093741134 0.44900596 0.4523173 0.3320769
000090 49 43 0f be 63 40 7e 3f 10 0e 96 3d 37 f0 bb be
       -0.13990511 0.99316996 0.07326901 -0.36706707
0000a0 11 f9 10 bf 4c 2a 57 bd 02 c7 8e bd c7 9a 1e be
       -0.56630045 -0.05253057 -0.069715515 -0.1548873
0000b0 e4 5a 95 3d 37 13 96 3d a8 e7 3a be 08 3a 24 be
       0.07292727 0.07327884 -0.18252432 -0.16037762
0000c0 15 2a 80 3d 30 c0 dc bd f4 ed d7 3d 46 19 ea bd
       0.062580265 -0.10778844 0.10543433 -0.11430602
0000d0 6a 91 09 3d 82 eb 6a 3c 8e 1b b8 3d aa 8e 99 bd
       0.033585943 0.014338376 0.08989631 -0.07497914
0000e0 f2 7d 6f 3d 32 8d 8d 3d b4 ee ef 3b 00 44 e0 bd
       0.05846972 0.069116965 0.007322157 -0.1095047
0000f0 7a 7b 0d be 72 a4 a3 bd 5d 75 1c 3e e0 51 bb 3d
       -0.13816634 -0.0799035 0.15279146 0.09146476
000100 35 16 b3 3d 8b 10 e4 bc ba 8d 02 be 08 08 91 3b
       0.0874447 -0.02783992 -0.12749377 0.004426006
000110 34 7b 39 3d 52 cc 71 3b 63 1d 08 be e9 9f c9 bd
       0.04528351 0.0036895466 -0.1329246 -0.098449536
000120 ee 64 3a 3c d2 16 96 bd c1 0a 86 bd bf 13 fa 3c
       0.011376603 -0.073285714 -0.0654502 0.030526994
000130 ab 2a 0c bd fe c3 7e 3d f2 bd 16 be 33 b1 ff bd
       -0.03422038 0.06219863 -0.14720896 -0.1248497
000140 84 5b b4 3d 16 44 4a bb 2a 98 98 bd e2 df 31 3c
       0.08806518 -0.0030863336 -0.07450898 0.0108566005
000150 44 99 78 be 18 ed 8e be f6 62 d0 3e ba fd 00 be
       -0.24277216 -0.27915263 0.407005 -0.12596789
000160 13 b6 84 be a8 cc ef 3e 54 8b e6 3d 0c a2 c7 be
       -0.25920162 0.46835828 0.112570435 -0.3899082
000170 6a 8f 17 3f 75 05 42 3e b5 b5 0a bf b5 bf f2 bd
       0.5920321 0.18947394 -0.5418351 -0.118529715
000180 3a 72 9b be 5e 4a 50 3d 49 69 b6 3e 56 f8 85 be
       -0.30360585 0.050852172 0.356272 -0.26166028
000190 46 a5 8b be 63 ec cf 3e 64 cf 80 3e 0e 10 2e 3c
       -0.2727453 0.40610036 0.25158226 0.010623945
0001a0 bd 1a 20 3e 66 04 4d be ab 5b bc be 61 04 78 3e
       0.156352 -0.20021209 -0.36788687 0.2422042
0001b0 48 8d f9 3b 43 93 0a 3f 34 2b 58 3f e1 3d 80 3e
       0.007615719 0.54130954 0.8444092 0.2504721
0001c0 d4 c9 84 3d 2c 74 5c 3e 94 85 71 3f fa 38 95 3e
       0.06483808 0.21528691 0.9434445 0.29145032
0001d0 0c 68 94 3d c5 2c ad 3e 90 37 5d 3f f8 83 bd 3b
       0.07246408 0.3382322 0.86412907 0.005783554
0001e0 be 60 42 be 87 40 3b 3f 23 58 1d 3f fd 18 37 be
       -0.18982217 0.73145336 0.6146261 -0.17880626
0001f0 43 29 9c 3a a0 ec c4 bd 98 67 27 be 60 61 03 3e
       0.0011914152 -0.09615445 -0.16348112 0.12830114
000200 e4 e2 31 bd ce 9e c8 3c e1 b5 9a bc 9e c5 c3 3d
       -0.04342927 0.024489786 -0.018885555 0.09559177
000210 0b 97 af 3d 3d cf 82 be cf fe 14 bd 69 ef 7a 3d
       0.08573731 -0.25548735 -0.036375817 0.061263476
000220 0d 99 c7 bd 48 b3 f7 bd da 32 07 be d5 5b 06 be
       -0.09745989 -0.12094742 -0.13202992 -0.13120969
000230 fe 14 1b 3d 14 ff 01 be df df 62 bd 82 f6 f6 bc
       0.037861817 -0.12694961 -0.05538928 -0.030146841
000240 c6 73 ce bd ff b8 40 be 87 e6 47 be dc e5 5a bd
       -0.10080676 -0.1882057 -0.19521533 -0.053441867
000250 e0 95 11 3d f5 d6 27 be de d8 09 bb eb 2d 0a bd
       0.035543323 -0.16390593 -0.0021033804 -0.033735197
000260 68 94 9f 3d 6e dd 1e be 55 9d 82 be 9c 29 87 bd
       0.07791978 -0.15514156 -0.2551066 -0.06599733
000270 0c 92 29 bd 42 3b a0 bd ff 75 73 bd df 46 28 be
       -0.041399047 -0.078238025 -0.0594387 -0.16433285
000280 28 ad 4d be aa 6b 68 be d5 db 7d 3d d0 08 0f bd
       -0.20085585 -0.2269732 0.061977226 -0.034920514
000290 be 95 98 bc 2b ec 1a 3d 53 18 3a be 56 4a 0e 3e
       -0.01862609 0.037822884 -0.18173341 0.13895544
0002a0 ee 73 3f bd e5 5c 99 bd 1a ad 81 be 60 b4 27 3e
       -0.04674142 -0.07488421 -0.2532738 0.16377401
0002b0 bc c5 f3 bd 97 1c 70 3d 0a 02 9f bd 38 a2 71 be
       -0.11902949 0.058621015 -0.07764061 -0.23597038
0002c0 5e 8b 3b 3e e4 12 a2 3e 2b 93 08 be b7 85 b2 3d
       0.18314883 0.31655037 -0.1333739 0.0871691
0002d0 fa 13 38 bd ec 3c 48 3e 3f 56 2c 3e a5 12 9b 3c
       -0.044940926 0.1955449 0.16829775 0.018929789
0002e0 e3 e3 63 3d 86 fb 5a bd fe 0a 59 be bd 1d 9d 3c
       0.05563725 -0.053462528 -0.211956 0.01917922
0002f0 65 7c 95 bc 4f 2d 4e 3e 78 56 dc 3d 7a 64 22 3e
       -0.018247792 0.20134471 0.1075868 0.15858641
000300 96 f4 c0 3d 53 76 54 be ed 99 0c 3e 78 50 b7 3e
       0.09421651 -0.20748262 0.13730593 0.3580358
000310 8b e3 db 3e 53 76 f5 bd 0b 5d 2a 3e 53 7c 8f 3e
       0.4294704 -0.11985459 0.16637056 0.2802454
000320 24 0e 84 3e b1 5f d0 bd f4 6b 95 be 8d b9 d7 3c
       0.25792038 -0.10174502 -0.29183924 0.026333595
000330 78 2f 27 be 67 bf d9 bb 7f 75 2e bc 23 42 6c be
       -0.16326702 -0.0066451314 -0.01064813 -0.23072104
000340 4a 0f 78 be 14 f7 2c 37 aa 8a b1 3c 6e ad 4a bf
       -0.24224582 1.0309526e-05 0.021672565 -0.7917088
000350 6c 51 03 3f ed 21 ae 3d 92 d8 60 be f3 84 a9 be
       0.51296115 0.085025646 -0.21957615 -0.33109245
000360 a9 01 02 be 42 57 af be a7 5b c6 3d c5 7e 98 be
       -0.12695946 -0.3424626 0.0968545 -0.29784217
000370 87 99 26 3e c7 58 9a 3e 50 bc 62 be 08 84 b7 be
       0.16269504 0.30145857 -0.22142148 -0.3584292
000380 19 37 f9 3c db 8f c6 3a bc c6 ce be 8c 5e 56 3e
       0.03042178 0.0015149073 -0.40385997 0.20934504
000390 c2 4d 69 be 91 b7 b2 be 33 8d 25 3d 0b 23 fa be
       -0.22783569 -0.34905675 0.04041786 -0.4885486
0003a0 73 f4 cd be 0e be 66 3f 30 d0 de 3e eb 1f ad be
       -0.40225562 0.9013375 0.4351821 -0.33813414
0003b0 5f d2 d4 bc ed 92 2d 3f 17 09 8a 3e bd be 95 3d
       -0.025979219 0.67802316 0.2696006 0.07311771
0003c0 bc de ad 3e ab e2 bd 3e 51 90 44 3e 08 12 49 bf
       0.33958995 0.37086996 0.19195677 -0.7854314
0003d0 11 c3 1f 3f 6d 6c 2f 3f cf 1f 89 bd 2c 52 47 3d
       0.6240702 0.6852482 -0.0669552 0.04866235
0003e0 03 85 69 3e 8e 86 1d 3f 09 db 0c bd 02 6d 34 3e
       0.22804646 0.6153344 -0.034388576 0.17619708
0003f0 0c a0 58 3e b1 8a 4c 3e fb 38 36 3e 34 89 ab 3d
       0.21154803 0.19974782 0.17795174 0.08375779

linear1.bias f4 [500]
000000 a6 37 28 3f 7d 0d 14 be ae 93 14 3f 05 ee e8 bd
       0.6570991 -0.1445827 0.5803784 -0.113735236
000010 ae 37 53 bc 09 23 17 3e ab 37 9d bd 74 94 2a be
       -0.012891693 0.14759459 -0.076766334 -0.16658193
000020 7b 0a 8f be e6 2c a0 bc f4 30 23 be b7 e5 9f be
       -0.27937683 -0.01955266 -0.15936643 -0.31229946
000030 00 8f 57 3b 78 0a 9c be ae a2 89 bd 82 83 f9 3e
       0.003289163 -0.30476737 -0.06720482 0.48733145
000040 25 1f 0c be 24 ed ed bd 2f dc 00 bf ba d7 1e be
       -0.13683756 -0.116174966 -0.50335974 -0.1551198
000050 80 03 e6 3b 72 9c 8a be 12 cf c2 3f e7 76 6d be
       0.00701946 -0.27072483 1.5219443 -0.23189889
000060 6f b5 d8 bd f2 69 93 be ca c2 5d be c5 66 d5 be
       -0.10581481 -0.28791767 -0.21656337 -0.4167997
000070 90 ec 23 be f4 f6 4f be 80 80 88 bd 78 cb ca 3e
       -0.1600821 -0.20309049 -0.066651344 0.3960836
000080 cf 5c 20 be 69 84 54 be 34 3b 93 3e 9d 14 b7 3d
       -0.15660404 -0.20753635 0.28756106 0.089394785
000090 b5 b7 17 be 93 5e 9e 3e c5 47 0d 3e 31 5e 9d be
       -0.14816172 0.3093153 0.13796909 -0.30735925
0000a0 d9 6a 56 be 85 1d f7 bd 34 51 33 be 5c 9d af 3d
       -0.20939197 -0.12066177 -0.17511445 0.08574936
0000b0 81 4f 98 bd 07 c7 dc 3c 1f 46 8b be 6d 2b 1e bd
       -0.07437039 0.026950372 -0.27201936 -0.038615633
0000c0 9b 6d 42 bf 80 74 37 bf 32 7d 04 be 80 88 06 be
       -0.75948495 -0.7166214 -0.12938383 -0.13138008
0000d0 ed 86 de be f8 e1 0a be ce 98 5a be 75 66 18 be
       -0.43462315 -0.13562763 -0.21347353 -0.14882834
0000e0 e9 ba 71 be 1e 25 10 bf f3 31 c6 bd dd 2f 1f bd
       -0.23606457 -0.56306636 -0.09677496 -0.038864005
0000f0 1c d8 20 3e f5 e8 b9 3e a7 74 76 bb ab e7 3c be
       0.15707439 0.36310545 -0.0037606151 -0.1844775
000100 dd 88 db bd 25 54 1b 3d da a7 ec bd 03 41 90 be
       -0.10719464 0.037922043 -0.11555453 -0.281746
000110 eb 3a 73 bc 56 e3 27 3e 30 97 25 bd ae 91 1d bf
       -0.01484559 0.16395316 -0.040427387 -0.61550415
000120 d1 33 7a be c8 c2 0c be ea fa 64 be 6b d7 37 bd
       -0.24433829 -0.13746178 -0.22361341 -0.044883173
000130 59 65 c2 3e 8d 6f f9 bd 97 62 94 be bf 69 a2 be
       0.37967947 -0.1217948 -0.28981468 -0.31721303
000140 43 6b 3b be 6b a8 46 be 58 a1 5d be d4 38 17 be
       -0.18302636 -0.19400184 -0.21643579 -0.14767772
000150 34 a9 86 be 15 c6 49 bd 7f 46 a7 be 83 13 7f be
       -0.26300967 -0.04926117 -0.32670972 -0.24909787
000160 aa 21 23 bd 12 ff 14 be b1 35 17 be 3d 62 7b be
       -0.039827026 -0.14550427 -0.14766575 -0.24549194
000170 72 36 12 be 72 bc 7c be 0c 97 b4 be c7 ce 6f be
       -0.14278582 -0.24681261 -0.3527149 -0.23418723
000180 bc 44 eb 3d 9b 2f f9 bd 9f ff 23 3c 19 7c 74 bd
       0.114877194 -0.12167283 0.010009675 -0.05968866
000190 e3 fc 40 be 16 79 7c be 95 81 86 be 7a 6c 2a be
       -0.18846469 -0.24655566 -0.26270738 -0.16642943
0001a0 22 61 a3 bd b6 fa 8c 3e 3c b7 e3 be 2c 6e ac 3c
       -0.07977511 0.27535027 -0.44475734 0.021048628
0001b0 19 a4 23 be ec 5a 14 be cc 4f 88 be b1 e5 77 be
       -0.15980567 -0.14487809 -0.2662338 -0.24208714
0001c0 8c e0 8e be 20 47 27 be 37 db 91 3d a2 c9 5e bd
       -0.2790569 -0.16335726 0.0712189 -0.05439151
0001d0 fe 15 c5 3d 80 46 a0 ba d1 6c aa bd 5f 75 94 bd
       0.09623335 -0.0012228042 -0.08321536 -0.07248949
0001e0 c3 46 12 be 35 d9 b1 3b 9c 28 1a 3e 8d f3 86 be
       -0.14284806 0.0054275044 0.15054554 -0.2635769
0001f0 ac 84 71 be eb 72 2c bc fe e3 0b bc 1d f8 9e be
       -0.23585767 -0.010525445 -0.008538244 -0.3104867
000200 8f 68 98 3e 2d 30 17 bd f3 ee f4 bc 4a ed 37 3f
       0.29767272 -0.03691118 -0.029899096 0.7184645
000210 52 46 18 be 8d 89 0a 3f fd c0 fc bd 05 81 73 bd
       -0.14870575 0.54116136 -0.12341497 -0.059449214
000220 10 27 af 3f 34 95 a8 3d 08 9b 15 3e 9e 40 af bd
       1.3683796 0.08231583 0.14609921 -0.085572466
000230 71 93 38 be 01 23 98 bd a4 4d b0 be 5c 59 c2 bd
       -0.18024994 -0.074285515 -0.34434235 -0.094897
000240 51 4a 66 be f4 4f 88 bc a6 d9 e4 bd 03 d0 0a bf
       -0.22489287 -0.016639687 -0.11174326 -0.5422365
000250 b3 26 cb 3d c0 43 97 be c0 2d 3d be f3 bd c6 3d
       0.09919491 -0.29543877 -0.18474483 0.09704199
000260 98 8e c6 3d 87 d5 8d be 85 41 63 be 21 60 fd bd
       0.09695166 -0.2770197 -0.22192962 -0.12371851
000270 ed 16 28 bd f0 02 85 bd 41 55 92 3f 2f 98 95 be
       -0.04103749 -0.06494701 1.1432267 -0.2921767
000280 9e 4d a0 bd 72 78 c6 be 2c ea ea 3e b4 31 6e bd
       -0.07827304 -0.38763767 0.45881784 -0.05815287
000290 c5 5f 69 bd c7 2a 82 be 4e 8d db bd 33 7c bf 3e
       -0.0569761 -0.25423262 -0.10720311 0.37399444
0002a0 bc e4 17 3f 21 02 23 bc 0a 84 2c be 14 8e c5 3c
       0.59333396 -0.009949238 -0.16847244 0.0241156
0002b0 02 33 e9 bd 2f f9 73 3d b5 ee 87 bd fa 35 d4 be
       -0.11386682 0.059563812 -0.06637327 -0.4144743
0002c0 29 8d df bd a2 4b 0a be e0 ce 8f 3b 13 8c 6f be
       -0.10915596 -0.13505414 0.004388675 -0.23393278
0002d0 06 ae fd bd b2 4f fe bd e9 d8 c1 bd b9 da 08 3f
       -0.12386708 -0.124175444 -0.094652005 0.53458744
0002e0 1d 60 33 be 52 f2 a4 3d 71 2f e5 bd 24 49 84 be
       -0.17517133 0.080540314 -0.11190689 -0.25837052
0002f0 cd 02 35 be 43 e8 69 bd a7 4d 06 bd 49 f5 b7 3c
       -0.1767685 -0.057106268 -0.0327889 0.022455828
000300 aa e6 0c be 2d 5a 98 bd cc c3 a1 be 0d ee ee bd
       -0.13759866 -0.07439075 -0.31594694 -0.11666498
000310 ea fd 12 bd 4f 23 a2 bd e5 17 8d bd de 69 aa be
       -0.035886683 -0.07916891 -0.06889323 -0.33283895
000320 34 f1 b1 3e 08 35 82 3e 22 71 57 be bf 45 6c be
       0.34754336 0.25431085 -0.2103925 -0.23073481
000330 b2 63 f1 bd c8 9b 8b 3e 68 36 aa 3d 91 ca d0 bc
       -0.117865935 0.2726729 0.083111584 -0.025487216
000340 07 c4 19 be a7 04 95 3e 7a 76 ce 3d f6 1a 2a be
       -0.15016185 0.29105112 0.10081191 -0.16611847
000350 d3 f0 49 be 17 85 8a be bc 0a 17 be 40 ae 48 be
       -0.19720773 -0.27054664 -0.14750189 -0.19597721
000360 75 7b 55 be 87 c3 bb bd e3 51 83 be 91 a5 96 be
       -0.20847876 -0.09168153 -0.25648412 -0.29423192
000370 73 c8 5a be ad e0 fa bd 63 e5 09 be 19 74 cd bc
       -0.21365528 -0.12249885 -0.1346641 -0.025079774
000380 c1 26 93 be 1a d3 8b bd 98 2a a4 3f a1 73 48 3e
       -0.28740504 -0.06827374 1.2825499 0.19575359
000390 c7 8d 90 be 83 f4 89 3d ad c3 10 be b5 35 99 bc
       -0.28233168 0.0673609 -0.14137144 -0.018702367
0003a0 1e a0 93 bc a2 71 f7 3e 6b ec ab be 6a 7d 32 3e
       -0.018020686 0.48328882 -0.3357881 0.17430654
0003b0 3d a5 4c bf cc 2d 6b be 6c b7 80 3e 9f 9b d9 3e
       -0.79939634 -0.22966689 0.2513994 0.42501542
0003c0 01 81 d0 bd 2d df 04 be 2a 48 35 be 2f 01 af bd
       -0.101808555 -0.1297576 -0.1770331 -0.08545148
0003d0 d4 b4 ea 3e ca 0a 60 be 62 8e c2 bd ed 2b a3 be
       0.45841086 -0.21879116 -0.094998136 -0.3186945
0003e0 e4 8d c6 3c 64 dd 7e be f5 eb 47 be 13 c0 25 be
       0.02423758 -0.24889141 -0.19523604 -0.16186552
0003f0 b8 25 34 3d 2b 24 81 be 69 67 20 3f 6b 5c 40 bd
       0.043981284 -0.25222906 0.6265779 -0.046963137

linear2.weight f4 [3, 500]
000000 22 03 a5 3e 80 31 a8 bc 79 b5 80 3e 7c 52 0a 3c
       0.32228953 -0.020531416 0.25138453 0.008442517
000010 6e 48 db 3d 31 e7 1d 3e f3 5c 7c 3d ae 70 29 be
       0.10707174 0.15420224 0.06161208 -0.1654689
000020 a0 1c ec bc 7b 0d 96 bb db 11 f6 bb de 76 1a be
       -0.028822243 -0.0045792437 -0.0075094528 -0.15084407
000030 ec 67 12 3c 30 35 ad bd d8 95 fe bd 00 90 08 3e
       0.00893591 -0.0845741 -0.12430924 0.13336182
000040 4c 73 64 bc b1 cc c2 3e 5a 98 0f 3d 91 d1 9e bb
       -0.013943505 0.38046792 0.035057403 -0.0048467596
000050 be 0e 70 bc 8b cb b7 3b ee 2c a7 3e 1c 4d 9c 3c
       -0.014651952 0.005608981 0.32651466 0.019079737
000060 28 9f 85 3d 3a 59 04 3d 75 99 d5 3d 71 e7 b2 3c
       0.06524497 0.032311656 0.1042966 0.021838875
000070 c4 03 4b bc 48 ae 08 3d 23 69 26 bc ad 26 1a be
       -0.0123910345 0.033369333 -0.0101569025 -0.15053816
000080 99 0e 94 bc de c4 4c 3b 6b 91 19 be bd 8b 04 bc
       -0.018073367 0.0031245272 -0.14996879 -0.008089957
000090 f6 67 7d 3c 60 35 3f 3e a9 67 49 3f 7d 8f 5b bc
       0.015466681 0.18672705 0.786738 -0.0134009095
0000a0 d1 22 87 bc 30 ca d0 3c 0b a8 4c 3c 96 3c 35 bd
       -0.016496094 0.025487036 0.012491236 -0.044247232
0000b0 2e b6 9a 3c a2 be 01 bc 3e 24 b7 3d ae 52 a4 bc
       0.018885698 -0.007918986 0.089424595 -0.020058956
0000c0 a4 40 e0 bd 67 6a 1a be 35 81 01 3e 3c af 1e 3f
       -0.10949829 -0.15079652 0.12646945 0.61986136
0000d0 a5 c7 a6 be 43 93 4b 3a 70 b8 86 3b 95 b3 63 3c
       -0.32574192 0.0007765779 0.004111342 0.013897796
0000e0 c2 8b f3 3e 7f 86 06 3d 75 c9 da ba 77 f8 6a 3c
       0.47567564 0.03284311 -0.0016692119 0.014341465
0000f0 7c 0e e1 3d fa e3 4c 3e 9a c9 4f 3c 53 51 93 3a
       0.10989091 0.20008841 0.012682343 0.0011239446
000100 9b 4e de 3c 49 a8 a5 3d ef f7 f9 bc e1 c2 0a 3e
       0.027137091 0.080887385 -0.030513732 0.13550903
000110 94 cf 61 3b 69 fc a7 bd 1a 02 e5 bc 93 e7 f5 3e
       0.0034456002 -0.0820244 -0.027955104 0.4802824
000120 f1 10 85 3d 71 00 85 bc 48 65 40 3d 71 1c 7b ba
       0.06497372 -0.016235562 0.04697159 -0.0009579128
000130 8d 88 87 3e 1d 77 7d bb 57 71 aa bc 96 b1 cd 3d
       0.26471367 -0.0038675733 -0.020805998 0.100436375
000140 55 60 21 bc 0b d1 74 bc 18 12 99 3c a7 69 84 3d
       -0.0098496275 -0.014942418 0.018685386 0.06465464
000150 e1 50 3b 3d 02 4b dc 3c 99 39 40 3d a0 32 86 39
       0.04573143 0.026891235 0.04692993 0.0002559619
000160 d3 d1 97 bd 2f fe 2b 3d e1 96 ec 3b 68 00 f5 bc
       -0.07413068 0.041990455 0.0072201346 -0.02990742
000170 c2 cc 9b 3a f6 8d 9d bd f8 15 20 3d 6f 88 c7 bc
       0.0011886584 -0.076930925 0.03908345 -0.024357049
000180 8e 60 03 3d 2d 94 cb ba b1 ef ea 3b c5 bc 83 bb
       0.032074504 -0.0015531831 0.0071696867 -0.004020306
000190 83 40 bb 3d b1 5f 8b 3c 67 98 bb bb 24 52 60 3f
       0.09143164 0.017013403 -0.005724955 0.87625337
0001a0 6b c2 8f 3e 1f 74 1f 3e b1 9b b8 bd a2 b5 99 3d
       0.28078017 0.1557164 -0.09014071 0.07505347
0001b0 e6 36 33 bb c5 ac a0 bc a3 ff ae 38 93 35 96 3c
       -0.0027345954 -0.019613633 8.3445826e-05 0.018336093
0001c0 5e c3 d8 bb 36 e7 0f bd 88 ce 44 3e b1 36 32 bd
       -0.0066150865 -0.03513261 0.1921941 -0.04350919
0001d0 33 fa 7f 3a 00 7c 01 bd d4 d9 f2 3c a8 90 44 3c
       0.00097647606 -0.031612396 0.029644884 0.011997379
0001e0 c0 e1 4a 3f 0c b7 35 bc fa 36 b6 3d 55 79 5f 3a
       0.7925072 -0.011091005 0.08897205 0.0008524855
0001f0 e3 6a 93 bd 12 46 52 bc 4d 9e 5a bd 89 3c f5 bc
       -0.071981214 -0.012834089 -0.053373624 -0.029936092
000200 f8 d2 b9 bd 7c 84 e1 bc 17 60 a1 bd 29 a6 02 3f
       -0.09073442 -0.027528994 -0.07879656 0.5103479
000210 39 75 2d bc 4e ab 51 be 6f 1b 71 bb 27 9d ff 3c
       -0.01058703 -0.20475504 -0.0036790033 0.031202866
000220 22 fd 97 3e b9 33 10 3c d7 19 63 3c 01 e8 05 3c
       0.29685313 0.008801394 0.013861141 0.00817299
000230 d4 b5 ed 3b d6 65 77 bc 61 c8 93 3e a8 92 07 3c
       0.0072543416 -0.015099963 0.28863814 0.008274712
000240 96 d1 59 3c a3 6e be bb 1d 40 0a bb 0e 24 98 3d
       0.013294598 -0.005811529 -0.0021095343 0.07428752
000250 fa 2e 0d 3e b4 b3 04 3d 0e 0c 6e 3b ec 13 ad bd
       0.13787451 0.03239794 0.0036323103 -0.084510654
000260 2c 0f 71 3e 08 24 9f 3a e8 b9 69 bc 7c 08 85 bc
       0.23540944 0.0012141475 -0.014265515 -0.016239397
000270 8f f5 7d 3d a9 89 5b 3c 01 da 74 3e 88 af b3 3c
       0.06200176 0.01339952 0.23911287 0.021934286
000280 c5 bd f2 3b 0b 47 cf bd 96 b2 37 be b7 5a e9 3b
       0.007407876 -0.10120972 -0.17939219 0.0071214098
000290 c5 6d fb 3c f9 f4 d5 3b 8f 45 c0 bc 4b a7 fa 3d
       0.03069199 0.006529447 -0.023470668 0.1223894
0002a0 77 a6 87 3e 54 8a b1 3c 97 fa b1 bc e2 86 d7 bb
       0.2649419 0.021672405 -0.021725936 -0.0065773586
0002b0 52 a9 57 bc e8 be f1 bc ed af 08 3e e6 f2 4f be
       -0.013162928 -0.029509977 0.1334836 -0.20307502
0002c0 df 03 f9 ba 5d 7d 46 3c 7e 2d c3 3c b0 7d 2d 3b
       -0.0018998346 0.01211485 0.023825403 0.002647262
0002d0 09 65 7d 3c e7 0f 2f 3c 77 d3 c2 bd 7e 35 77 3e
       0.015465983 0.010684944 -0.0951299 0.241415
0002e0 10 91 af 3c 90 8b a6 bd f8 f6 1f bd 94 c5 3f 3c
       0.021431476 -0.08132088 -0.039053887 0.011704821
0002f0 5c 68 82 3c ab 35 fd 3c 14 09 be 3b 0c ed 7a bd
       0.015918903 0.03090938 0.005799422 -0.06126122
000300 e3 5b 1b ba d3 1b 86 bc 58 2d 68 bd 79 ef b1 3c
       -0.0005926473 -0.01637069 -0.05668387 0.021720635
000310 d1 00 82 bc 84 d6 08 3c ae d9 f2 bb b4 f2 4d be
       -0.01586953 0.008351926 -0.0074112033 -0.20112115
000320 fd f0 3e be 35 7c 1c 3e 68 72 9c bc 62 31 81 3c
       -0.18646617 0.15281756 -0.019097522 0.015770618
000330 9e 02 b1 3c f5 d8 89 3e 19 20 29 3e ae ae 25 3c
       0.021607693 0.26923338 0.1651615 0.010112448
000340 27 f8 12 3d a5 58 6b 3e 21 39 27 3d 8f 09 f5 ba
       0.035881188 0.22983034 0.040825967 -0.0018694865
000350 28 c1 8a 3c 44 1b 82 3c 6f b9 69 bd d1 ce f9 bb
       0.016937807 0.015882142 -0.05706161 -0.0076235314
000360 a1 f3 08 3c 6a 72 e4 b9 83 0c 40 3f c1 0c b7 3a
       0.008358867 -0.00043572794 0.7501909 0.0013965593
000370 34 19 9b bb 67 81 26 bd c2 83 20 3c 42 3d 2e 3c
       -0.004733229 -0.04065075 0.0097970385 0.010634722
000380 a7 f1 5c ba ea 39 c1 3c f5 66 7d 3e af 58 ff bd
       -0.0008428343 0.023587186 0.24746306 -0.12468087
000390 1e 58 fc bc d4 04 32 3f b0 e6 09 bd 2c 65 7a bc
       -0.030803736 0.6953862 -0.033667266 -0.01528291
0003a0 42 76 1c bc de 81 6f be 0a 0a 90 3c e3 1d 0b be
       -0.009549679 -0.23389384 0.017582912 -0.1358562
0003b0 a6 fa f5 bd 83 aa 2a bc 5a a4 55 3e 2e f2 d4 bd
       -0.12010698 -0.01041663 0.20863476 -0.103977546
0003c0 81 6b 96 be 6a f9 ed 3b 95 e6 ac 3c 2d a2 30 bd
       -0.29378894 0.0072623985 0.021106044 -0.043123413
0003d0 f8 e1 4e be fe 8a c7 bb 1e 15 f4 3c c3 36 38 3e
       -0.20203388 -0.006089567 0.029795226 0.1798964
0003e0 5a 7b 23 bd f5 37 a7 3d 2e 6b dc bc 64 82 c3 3c
       -0.03991256 0.0816497 -0.026906576 0.023865886
0003f0 78 22 9b bc 5f 5f ab bc 23 97 38 be 02 ab a6 3b
       -0.018937334 -0.0209195 -0.18026404 0.0050863037

linear2.bias f4 [3]
000000 bd 96 5b 3f 94 e2 da 3d 0b 23 24 bc
       0.85776883 0.106877476 -0.0100181205
