model/snek_mdl.pth (torch, 61976 bytes, 4 tensors)

linear1.weight f4 [500, 26]
-0.32675463 -0.08806263 0.07100181 -0.14047694 -0.29887933 -0.100656375 -0.18693796 -0.25647026
0.00073253957 -0.24034594 0.0657235 -0.06610952 -0.07818399 -0.28925022 -0.07329089 -0.1134685
-0.039216883 0.049184345 -0.14536658 0.0198056 0.021331865 0.11046079 0.04362996 -0.065484434
-0.16799782 -0.28287378 -0.39508697 -0.47532812 -0.21996452 -0.07179916 -0.11096536 -0.3387687
-0.0725676 -0.25639307 -0.33330557 -0.23150982 -0.01788723 -0.09220834 -0.1331514 -0.2018758
0.026419885 -0.14501172 -0.20202121 -0.11972308 -0.4083636 0.15585235 -0.11269984 -0.16735934
-0.061821107 0.10355887 -0.42687774 -0.3679967 -0.2547238 -0.1458931 -0.05353788 -0.07582851
-0.36793837 -0.036846895 -0.035763722 -0.33752856 -0.36412653 -0.1427623 -0.03308613 0.14113666
-0.08073436 -0.2921989 -0.1176217 0.2204952 -0.14022352 -0.33469513 0.014393422 -0.22007392
-0.0039429115 -0.08678687 -0.14740682 -0.104543425 -0.06529311 -0.094222866 -0.3465645 -0.0717523
-0.025908705 -4.5069795e-05 -0.12901416 -0.22110845 -0.102358654 -0.07302048 0.0035725152 -0.0047814893
0.09287967 -0.14692974 -0.10780127 0.075592674 -0.11412924 -0.20346509 -0.10852995 0.028410336
0.054186784 -0.12832792 -0.1936551 -0.11183265 0.052303504 0.068738714 -0.15350763 -0.24461287
0.14922024 -0.446297 -0.10778988 -0.36766055 -0.22650026 -0.010179911 -0.16795091 -0.1867628
-0.07709765 -0.28733054 -0.22826886 -0.058666844 -0.21733786 -0.049872678 -0.14462051 -0.35654482
0.0681032 -0.15501842 0.054914743 -0.34669325 0.11240911 -0.10344166 0.09867479 0.030564113
0.22421071 0.16017419 -0.28115058 -0.033640437 -0.16594276 -0.3767499 -0.3146609 0.15752444
-0.13662927 -0.013554971 -0.017712632 -0.24781932 0.041175544 0.09686656 -0.23249532 -0.0041768174
-0.3407289 -0.02110746 0.020527976 0.08953684 0.15701689 0.11295291 -0.006710978 -0.4219409
-0.06908967 -0.08970555 0.0891592 0.09720579 0.5209146 0.0666253 -0.6363703 -0.56525385
-0.55011505 -0.6448195 -0.757641 -0.7620724 -0.71948403 -0.6647851 -0.10999513 -0.09514649
0.17820865 -0.15018122 -0.04315966 -0.30038893 0.057174463 -0.01495737 0.009297843 -0.021752244
-0.28455585 0.05695852 0.05856072 0.013207276 0.05279854 -0.09986402 -0.5248694 -0.16348286
-0.390132 -0.59103066 -0.45524687 -0.45123833 -0.24788049 -0.17517005 -0.66645974 -0.6003984
-0.5336028 -0.41026103 -0.106950045 -0.12553291 -0.37845138 -0.0105259735 -0.1928864 -0.87097263
-0.40855506 -0.25355992 -0.24342465 -0.39380842 0.14478396 -1.1867323 0.12808979 0.13351336
-0.36134002 -0.14896978 -0.10373136 -0.24441205 -0.1302341 -0.20633094 -0.23157957 0.0040160883
-0.06833304 -0.12934496 0.02115131 -0.2664544 -0.06503448 -0.25173852 -0.047687646 -0.25705773
-0.20132668 0.050121743 -0.23857854 0.06769274 -0.10102092 -0.35659698 -0.19965729 -0.23352385
-0.1409888 -0.08669823 -0.061257135 0.058181856 -0.044238497 -0.12078286 -0.01057686 -0.15821716
-0.18512124 -0.06959339 -0.23924267 -0.00064748304 0.071894445 -0.0379814 -0.014377917 -0.24200083
0.0121058645 0.15945636 -0.16663088 -0.041262943 0.119253606 0.009877185 0.07770551 0.19605567
00000000: 624c a7be 2e5a b4bd 6669 913d 30d9 0fbe
00000010: b606 99be ee24 cebd aa6c 3fbe 1250 83be
00000020: e607 403a 3f1d 76be 0b9a 863d 6e64 87bd
00000030: ee1e a0bd 9b18 94be 8919 96bd 2c62 e8bd
00000040: e2a1 20bd 8675 493d fada 14be 5b3f a23c
00000050: 2ac0 ae3c 4439 e23d 54b5 323d b41c 86bd
00000060: 9f07 2cbe d5d4 90be d748 cabe 355e f3be
00000070: 613e 61be 700b 93bd cf41 e3bd 1773 adbe
00000080: 529e 94bd f445 83be 07a7 aabe e910 6dbe
00000090: 3d88 92bc bad7 bcbd d758 08be 88b8 4ebe
000000a0: 846e d83c f47d 14be a6de 4ebe 6031 f5bd
000000b0: 0915 d1be c297 1f3e 2ccf e6bd 3f60 2bbe
000000c0: 2138 7dbd ac16 d43d b88f dabe 106a bcbe
000000d0: 286b 82be 0065 15be 894a 5bbd fa4b 9bbd
000000e0: 6b62 bcbe c5ec 16bd fb7c 12bd 8bd0 acbe
000000f0: cb6e babe 4830 12be 5285 07bd 2186 103e
00000100: 0e58 a5bd 189b 95be a5e3 f0bd 7ec9 613e
00000110: c196 0fbe 295d abbe 63d2 6b3c 0f5b 61be
00000120: 8a33 81bb 51bd b1bd d0f1 16be dd1a d6bd
00000130: 65b8 85bd ebf7 c0bd e770 b1be dff2 92bd
00000140: 7e3e d4bc 5309 3db8 4a1c 04be 416a 62be
00000150: 6aa1 d1bd c38b 95bd dc20 6a3b 0aae 9cbb
00000160: b237 be3d c074 16be eac6 dcbd 55d0 9a3d
00000170: 97bc e9bd 2759 50be f344 debd cbbc e83c
00000180: f6f2 5d3d 6568 03be 864d 46be 8408 e5bd
00000190: 333c 563d e2c6 8c3d 1b31 1dbe cc7b 7abe
000001a0: 31cd 183e 0a81 e4be f1c0 dcbd 013e bcbe
000001b0: afef 67be a4c9 26bc 53fb 2bbe bf3e 3fbe
000001c0: 5fe5 9dbd fd1c 93be 50bf 69be a54c 70bd
000001d0: d18d 5ebe 4b47 4cbd 6617 14be 0b8d b6be
000001e0: b179 8b3d 26bd 1ebe 48ee 603d c781 b1be
000001f0: bf36 e63d 39d9 d3bd 0216 ca3d 9761 fa3c
00000200: 7e97 653e b404 243e f8f2 8fbe 8eca 09bd
00000210: e6ec 29be 5de5 c0be 3c1b a1be 164e 213e
00000220: 8be8 0bbe ab15 5ebc 151a 91bc 59c4 7dbe
00000230: b0a7 283d fa61 c63d 4113 6ebe afdd 88bb
00000240: 0574 aebe 8de9 acbc 492a a83c 175f b73d
00000250: 09c9 203e db53 e73d c4e7 dbbb a308 d8be
00000260: e37e 8dbd 8bb7 b7bd 1999 b63d d413 c73d
00000270: a95a 053f d872 883d 2ae9 22bf 7ab4 10bf
00000280: 57d4 0cbf e412 25bf c3f4 41bf 2d17 43bf
00000290: 1b30 38bf 5b2f 2abf 2045 e1bd 2adc c2bd
000002a0: 547c 363e 1bc9 19be 2fc8 30bd 94cc 99be
000002b0: c52f 6a3d c20f 75bc fb55 183c c331 b2bc
000002c0: 4eb1 91be 564d 693d 5edd 6f3d 5563 583c
000002d0: 4843 583d 8285 ccbd d75d 06bf 0d68 27be
000002e0: 62bf c7be c94d 17bf 1e16 e9be b608 e7be
000002f0: 62d4 7dbe c75f 33be 1b9d 2abf b6b3 19bf
00000300: 319a 08bf bc0d d2be a008 dbbd b38b 00be
00000310: 61c4 c1be 2275 2cbc 0384 45be 10f8 5ebf
00000320: 212e d1be 9bd2 81be 5044 79be 42a1 c9be
00000330: 3f42 143e d8e6 97bf f829 033e bab7 083e
00000340: 8f01 b9be 898b 18be 1b71 d4bd 2747 7abe
00000350: 175c 05be 6b48 53be 3223 6dbe 6499 833b
00000360: 31f2 8bbd 0173 04be 8345 ad3c b66c 88be
00000370: cc30 85bd dfe3 80be 1f54 43bd 129d 83be
00000380: 9528 4ebe 754c 4d3d ef4d 74be 7ea2 8a3d
00000390: 0ee4 cebd e193 b6be f672 4cbe e020 6fbe
000003a0: 5e5f 10be d78e b1bd c3e8 7abd 1950 6e3d
000003b0: 6d33 35bd 015d f7bd 914a 2dbc ae03 22be
000003c0: 6c90 3dbe fb86 8ebd 08fc 74be dabb 29ba
000003d0: 653d 933d 6292 1bbd 5b91 6bbc 11cf 77be
000003e0: ad57 463c 8748 233e 49a1 2abe 5503 29bd
000003f0: 3c3b f43d ebd3 213c 1124 9f3d d1c2 483e

linear1.bias f4 [500]
-0.14452036 -0.20150298 -0.13350534 -0.34733796 0.04114624 -0.053759348 0.38708103 -0.43960148
-0.3434128 -0.24970789 -0.048055883 -0.096646845 -0.092064254 0.009559458 -0.025407745 -0.030413669
-0.2726077 -0.35022232 -0.059477907 0.024303688 -0.22716941 -0.36642477 -0.12196549 -0.25437078
-0.2582037 -0.06825323 -0.08530154 0.08124624 0.0125315795 -0.15311117 0.29986185 -0.22893411
-0.3421476 -0.32257408 -0.339895 -0.15523307 -0.2074779 -0.25550875 -0.32735363 -0.18570204
-0.22894382 -0.4064096 -0.31375882 -0.45321044 0.0021616134 -0.023185384 -0.19541772 0.003460204
-0.4260996 -0.46251938 0.22031005 -0.27937123 -0.3585528 -0.00985455 -0.31035087 -0.26856846
-0.07717374 -0.3086883 -0.21623322 0.030532585 0.2302554 -0.24528177 -0.21231793 -0.34910643
-0.19897819 -0.20973623 -0.020640992 -0.20040016 -0.119372 -0.19332214 0.05897136 -0.38304353
-0.008982352 -0.33978248 -0.3334605 -0.10865379 -0.19022298 -0.22043167 -0.036764182 0.033988692
-0.2375436 -0.19919004 -0.36151013 -0.3474727 -0.079623155 -0.28139246 -0.21951722 -0.43921688
-0.16139178 0.09641535 -0.11183291 -0.50007415 -0.38783976 -0.1558879 -0.3778903 -0.3920074
-0.18769366 -0.09454738 -0.1855421 0.042848703 0.35318843 -0.14330466 -0.19105534 -0.035291445
-0.18385118 -0.49175844 -0.24442811 -0.29950473 -0.31665504 -0.24114063 -0.03674473 -0.17242831
-0.094879694 -0.11901977 -0.20725067 0.08441394 0.33819628 -0.24818307 -0.21741433 0.035572797
-0.13069735 -0.11607093 -0.07212512 -0.3867203 -0.23341617 -0.32203352 -0.052388895 -0.119363815
-0.22231078 0.026045676 -0.31429338 -0.37916252 -0.14016484 0.0031574084 -0.17006747 -0.3902716
-0.20599726 -0.13313314 -0.20613907 0.07169751 -0.4171458 -0.28489852 -0.14100921 0.045827683
-0.10619852 -0.44622105 -0.053238522 -0.14301288 -0.26003146 -0.33397338 -0.18735626 -0.18655917
0.10143102 0.05509469 -0.12900297 -0.16644256 0.116484426 -0.3490024 0.092485115 -0.1903924
-0.14755537 0.32644975 -0.10231984 -0.080785915 -0.24581122 -0.2821935 0.101154394 0.0036417479
-0.32704377 -0.24759634 -0.14230964 -0.31134263 -0.18849853 -0.2997603 -0.09060837 -0.53435904
-0.05169793 0.11860802 -0.14717312 -0.022272306 -0.12423824 0.2959149 -0.2180533 -0.3052657
-0.044978704 -0.2195207 0.062967606 -0.4523008 0.034588285 -0.5013877 -0.10650287 -0.12950747
-0.09406019 -0.31051755 -0.22014216 -0.2514383 -0.14440753 -0.37558287 -0.4724153 -0.22496276
-0.11778904 -0.29041463 -0.21059869 -0.31061447 -0.28750533 0.08171714 -0.18161537 -0.22994858
-0.066445574 0.0137311565 -0.1902388 -0.027792333 0.4106626 -0.16987531 -0.32122934 -0.13477144
-0.31251913 -0.26640096 -0.28574076 0.09182062 -0.037571646 -0.3159277 -0.07615443 -0.4724076
0.0838168 -0.40111926 -0.35836428 -0.15654995 -0.32184517 -0.32110476 -0.21313797 0.0012060748
0.2125049 -0.2466576 -0.27486622 -0.28706303 -0.28692144 -0.2539205 -0.34651318 -0.54865307
0.12479673 -0.11425841 -0.28619486 0.022689559 -0.36519566 -0.15140386 -0.12131696 -0.22223762
-0.18569149 -0.044335313 -0.0077921455 -0.119409434 -0.28463048 -0.17525563 -0.043598887 -0.3280374
00000000: 25fd 13be cc56 4ebe a0b5 08be 48d6 b1be
00000010: f688 283d c332 5cbd 7c2f c63e 7213 e1be
00000020: cdd3 afbe 6db3 7fbe 3fd6 44bd c8ee c5bd
00000030: 2f8c bcbd 469f 1c3c e723 d0bc 1626 f9bc
00000040: 3d93 8bbe 5750 b3be 1b9f 73bd 8718 c73c
00000050: 199f 68be 079c bbbe 0bc9 f9bd e33c 82be
00000060: 4633 84be 59c8 8bbd 93b2 aebd 6e64 a63d
00000070: 4151 4d3c 2dc9 1cbe 7e87 993e b46d 6abe
00000080: f82d afbe 6e28 a5be b806 aebe 6bf5 1ebe
00000090: 1675 54be 0bd2 82be e59a a7be ad28 3ebe
000000a0: 4070 6abe eb14 d0be ffa4 a0be 330b e8be
000000b0: dba9 0d3b 46ef bdbc 951b 48be 97c4 623b
000000c0: ba29 dabe 57cf ecbe f598 613e bf09 8fbe
000000d0: 3c94 b7be fa74 21bc 4fe6 9ebe ce81 89be
000000e0: 440d 9ebd 650c 9ebe 3e6c 5dbe 791f fa3c
000000f0: 12c8 6b3e 252b 7bbe df69 59be 14be b2be
00000100: f0c0 4bbe 18c5 56be 4c17 a9bc b335 4dbe
00000110: 4f79 f4bd 3df6 45be f48b 713d 481e c4be
00000120: b72a 13bc f8f7 adbe 56bb aabe e185 debd
00000130: d0c9 42be d7b8 61be 0a96 16bd ba37 0b3d
00000140: a13e 73be 79f8 4bbe db17 b9be f1e7 b1be
00000150: 7711 a3bd ac12 90be 1fc9 60be 09e1 e0be
00000160: e343 25be 6975 c53d a708 e5bd dc04 00bf
00000170: ef92 c6be 14a1 1fbe d67a c1be 32b5 c8be
00000180: c432 40be 0fa2 c1bd c0fe 3dbe 1f82 2f3d
00000190: 1dd5 b43e 75be 12be 03a4 43be c38d 10bd
000001a0: 7c43 3cbe c3c7 fbbe 5d4b 7abe af58 99be
000001b0: 9c20 a2be 92ed 76be a481 16bd 0c91 30be
000001c0: 4950 c2bd a3c0 f3bd 8539 54be 37e1 ac3d
000001d0: 1028 ad3e b423 7ebe dda1 5ebe c8b4 113d
000001e0: 87d5 05be 99b6 edbd 56b6 93bd 3400 c6be
000001f0: a604 6fbe 94e1 a4be bd95 56bd 0475 f4bd
00000200: 70a5 63be be5d d53c 10eb a0be 9721 c2be
00000210: 5f87 0fbe 86ec 4e3b 2b26 2ebe aed1 c7be
00000220: f2f0 52be 0e54 08be 1f16 53be 25d6 923d
00000230: 2294 d5be 38de 91be b864 10be cfb5 3b3d
00000240: 9c7e d9bd 1677 e4be a310 5abd f871 12be
00000250: d822 85be 8ffe aabe 52da 3fbe 5e09 3fbe
00000260: 11bb cf3d f8aa 613d 5b19 04be eb6f 2abe
00000270: 638f ee3d 71b0 b2be d668 bd3d 3af6 42be
00000280: c118 17be 6c24 a73e 108d d1bd 1673 a5bd
00000290: f0b5 7bbe ab7b 90be 092a cf3d 64aa 6e3b
000002a0: 4872 a7be e589 7dbe 9eb9 11be 4d68 9fbe
000002b0: c205 41be 2f7a 99be e290 b9bd c1cb 08bf
000002c0: 35c1 53bd c3e8 f23d 8db4 16be 6974 b6bc
000002d0: 9e70 febd 2882 973e 5d49 5fbe c94b 9cbe
000002e0: 973b 38bd 09ca 60be 29f5 803d f893 e7be
000002f0: 72ac 0d3d f25a 00bf 2d1e dabd 9b9d 04be
00000300: a1a2 c0bd 28fc 9ebe f26c 61be 85bc 80be
00000310: 91df 13be 664c c0be 6be0 f1be a35c 66be
00000320: 613b f1bd 3ab1 94be 2fa7 57be dc08 9fbe
00000330: e633 93be 515b a73d 61f9 39be a477 6bbe
00000340: 9e14 88bd a5f8 603c f6cd 42be bfac e3bc
00000350: 5e42 d23e cbf3 2dbe 2c78 a4be 8601 0abe
00000360: 8202 a0be b565 88be 9d4c 92be 730c bc3d
00000370: bae4 19bd 47c1 a1be dbf6 9bbd 69df f1be
00000380: 24a8 ab3d 815f cdbe 867b b7be a14e 20be
00000390: e4c8 a4be d867 a4be d740 5abe 2815 9e3a
000003a0: e29a 593e cf93 7cbe 44bb 8cbe edf9 92be
000003b0: 5ee7 92be de01 82be 2d6a b1be 8774 0cbf
000003c0: 6e95 ff3d 5000 eabd 2288 92be 74df b93c
000003d0: edfa babe 9d09 1bbe 0775 f8bd 4292 63be
000003e0: e925 3ebe f298 35bd 4155 ffbb ef8c f4bd
000003f0: 16bb 91be 3676 33be bf94 32bd 85f4 a7be

linear2.weight f4 [3, 500]
-0.08746889 -0.02685829 0.080178484 0.016097646 0.0438619 -0.025016177 -0.024320919 -0.021524021
-0.031479392 0.0052428665 -0.047633693 -0.15897653 -0.02865942 -0.14953883 -0.0022816139 -0.028853608
0.07045488 0.032809116 -0.027385995 -0.0042144777 -0.029708713 0.010481976 0.15475018 -0.054461833
0.19550031 -0.04825622 0.068674974 -0.032894224 -0.0072615114 0.0024404754 -0.0450818 -0.04420291
0.09914926 -0.015691897 0.011186935 0.07605074 0.11163105 -0.018934194 -0.039504398 0.16532393
0.13812628 0.010314885 0.10848174 0.0049468502 0.1036593 0.09342555 0.0085433265 0.06066062
0.012413163 0.076728955 -0.06693768 0.03846009 -0.016788539 -0.114591524 -0.054330144 -0.11715061
0.08967198 -0.045062143 0.026559249 -0.011827316 -0.056386765 -0.033771943 0.029802747 0.16860318
0.11390028 -0.01325745 -0.017157067 -0.035673108 -0.019891938 0.0072236275 0.11060691 -0.06629565
0.0143860495 -0.0008753388 0.00024383797 -0.09194211 -0.012131738 0.0027478538 -0.06649821 0.04864159
-0.049485907 0.0115514975 0.07824664 0.08669815 -0.064502604 -0.07978101 0.014735703 0.0025621534
-0.02925861 -0.048249662 0.051525827 0.12575945 -0.004878677 -0.0127534075 0.025213467 0.06616149
-0.012338858 -0.07978802 -0.09362455 -0.020058364 -0.18294139 -0.053399418 0.0025972966 0.1045667
0.0031995587 -0.012516269 0.0066911583 0.03755384 0.07873411 0.0037942647 -0.04536179 0.014217377
-0.0699401 -0.030064339 -0.08750978 -0.037752636 0.23446283 0.09430291 -0.025423387 -0.04547069
-0.007863419 -0.0029715314 0.04244551 -0.09242213 -0.028110169 0.059485257 0.036892418 -0.0771411
0.050787676 -0.0885747 0.024161847 -0.021199724 -0.106004566 -0.035161186 -0.068024084 0.14834175
-0.035479274 -0.019351091 -0.03144187 -0.0023199741 -0.037245937 -0.07713986 -0.0069348766 -0.13122588
0.0060160696 -0.038004044 -0.0012521817 -0.01046899 -0.036920674 -0.044874653 0.11541255 0.035010584
-0.08162983 -0.023668323 0.053952318 -0.03210739 -0.06758005 -0.027099574 -0.02430444 -0.030123772
-0.07496159 -0.14342266 0.13245462 0.04950877 0.07524588 -0.06797114 -0.02472348 0.03733736
-0.054773346 -0.032122444 0.03961928 0.019079633 0.18725798 0.14075081 -0.10485734 0.08099627
0.04164532 -0.053497672 -0.070333436 0.012789852 -0.16526392 -0.11905298 0.09192407 0.18767948
-0.046384554 -0.05926547 0.0057388996 0.2176161 0.003518918 -0.09796546 -0.020814827 0.006973592
-0.07960146 0.036309298 -0.054151844 0.0046136826 -0.0116750775 0.03358166 0.10640669 0.19320224
0.028003484 -0.0076431963 -0.019382952 0.0029304102 -0.025854105 0.124697864 0.039441638 -0.023062607
-0.023707919 -0.004056693 0.09910882 -0.010822598 -0.2928239 -0.063666336 -0.037065815 -0.011291593
-0.04231382 0.1424065 -0.11744292 -0.024083003 -0.017626006 0.012239637 -0.001565375 -0.028863363
-0.04966622 -0.0019782835 -0.002366898 -0.011716421 -0.023040483 -0.030053446 0.32042986 -0.0075673526
-0.014871231 0.08830117 0.00839943 0.03781 -0.09566855 0.17811504 -0.023952926 0.027202578
0.053309187 0.06807896 -0.025009979 0.0868456 0.011214939 -0.02442408 -0.0060117114 -0.03084906
-0.05684542 -0.021540245 0.12277236 -0.014832757 -0.11861121 0.23044674 -0.024725443 -0.021925239
00000000: e422 b3bd eb05 dcbc 9e34 a43d 36df 833c
00000010: 89a8 333d baee ccbc aa3c c7bc 2553 b0bc
00000020: 89f0 00bd 5acc ab3b 8c1b 43bd beca 22be
00000030: 29c7 eabc b520 19be 2187 15bb 675e ecbc
00000040: a64a 903d da62 063d 9858 e0bc 9a19 8abb
00000050: b05f f3bc 98bc 2b3c d576 1e3e 5f13 5fbd
00000060: 3c31 483e 50a8 45bd 77a5 8c3d 18bc 06bd
00000070: f9f1 edbb 62f0 1f3b b2a7 38bd 1c0e 35bd
00000080: c40e cb3d 4b8c 80bc 6849 373c 7ec0 9b3d
00000090: d29e e43d e21b 9bbc 5dcf 21bd ad4a 293e
000000a0: fa70 0d3e c3ff 283c ad2b de3d 3019 a23b
000000b0: 544b d43d e555 bf3d 4ff9 0b3c 4577 783d
000000c0: 9460 4b3c 1224 9d3d 9f16 89bd 5488 1d3d
000000d0: 1e88 89bc f6ae eabd 4989 5ebd a9ec efbd
000000e0: f1a5 b73d 1593 38bd c892 d93c 5cc7 41bc
000000f0: cff5 66bd 7354 0abd e424 f43c 50a6 2c3e
00000100: 8d44 e93d c735 59bc fa8c 8cbc f71d 12bd
00000110: 6bf4 a2bc 2eb4 ec3b e085 e23d 04c6 87bd
00000120: 77b3 6b3c fe76 65ba c2ae 7f39 254c bcbd
00000130: 32c4 46bc 5615 343b 3730 88bd 673c 473d
00000140: bcb1 4abd 7e42 3d3c c63f a03d cd8e b13d
00000150: f119 84bd 3a64 a3bd 056e 713c cde9 273b
00000160: c1af efbc 70a1 45bd bf0c 533d 16c7 003e
00000170: 4fdd 9fbb abf3 50bc 798c ce3c ad7f 873d
00000180: ec28 4abc e767 a3bd 3abe bfbd 7051 a4bc
00000190: fd54 3bbe 59b9 5abd 6837 2a3b 1127 d63d
000001a0: b0af 513b 0a11 4dbc 8141 db3b 0ed2 193d
000001b0: 593f a13d 33a9 783b 49cd 39bd 00f0 683c
000001c0: c13c 8fbd 7d49 f6bc 5438 b3bd 82a2 1abd
000001d0: 0617 703e e221 c13d b544 d0bc 793f 3abd
000001e0: 92d5 00bc 06be 42bb 58db 2d3d d047 bdbd
000001f0: 4c47 e6bc d0a6 733d 811c 173d 27fc 9dbd
00000200: bd06 503d a766 b5bd 11ef c53c 0bab adbc
00000210: ec18 d9bd 2d05 10bd 3650 8bbd e6e6 173e
00000220: b752 11bd 2e86 9ebc 31c9 00bd b50a 18bb
00000230: 328f 18bd 81fb 9dbd f63d e3bb 1460 06be
00000240: 7322 c53b 21aa 1bbd 3f20 a4ba 2086 2bbc
00000250: 223a 17bd 7cce 37bd 6a5d ec3d 4267 0f3d
00000260: 8a2d a7bd 12e4 c1bc 1bfd 5c3d 0a83 03bd
00000270: 6967 8abd edff ddbc 1b1a c7bc 21c6 f6bc
00000280: 7685 99bd 64dd 12be 2fa2 073e b5c9 4a3d
00000290: 831a 9a3d 7434 8bbd e588 cabc 0fef 183d
000002a0: 045a 60bd d392 03bd d347 223d e44c 9c3c
000002b0: 8ec0 3f3e fb20 103e 72bf d6bd 5fe1 a53d
000002c0: 4894 2a3d 6020 5bbd fa0a 90bd 878c 513c
000002d0: f23a 29be 0cd2 f3bd b042 bc3d 0d2f 403e
000002e0: bbfd 3dbd 59c0 72bd 610d bc3b c1d6 5e3e
000002f0: a69d 663b 1da2 c8bd db83 aabc bb82 e43b
00000300: 1706 a3bd 0fb9 143d 53ce 5dbd 602e 973b
00000310: d348 3fbc ec8c 093d c0eb d93d cfd6 453e
00000320: 9067 e53c c773 fabb ffc8 9ebc 200c 403b
00000330: fdcb d3bc 9861 ff3d 8e8d 213d cbed bcbc
00000340: 1c37 c2bc 02ee 84bb 91f9 ca3d 4451 31bc
00000350: 04ed 95be 7f63 82bd 53d2 17bd 6000 39bc
00000360: 4251 2dbd 02d3 113e ea85 f0bd b849 c5bc
00000370: 6a64 90bc c288 483c 452d cdba dc72 ecbc
00000380: ce6e 4bbd 17a6 01bb f61d 1bbb 3bf6 3fbc
00000390: 65bf bcbc a532 f6bc 620f a43e 8ef7 f7bb
000003a0: 77a6 73bc 3ed7 b43d c39d 093c a9de 1a3d
000003b0: dfed c3bd ca63 363e ed38 c4bc f1d7 de3c
000003c0: bc5a 5a3d fb6c 8b3d bae1 ccbc 1bdc b13d
000003d0: ddbe 373c 0215 c8bc e4fd c4bb 2bb7 fcbc
000003e0: bed6 68bd 2b75 b0bc 1370 fb3d 1805 73bc
000003f0: 6fea f2bd 3bfa 6b3e 038d cabc 8f9c b3bc

linear2.bias f4 [3]
-0.4253069 -0.5053069 -0.7861412
00000000: d3c1 d9be cb5b 01bf 8d40 49bf
