model/snek_mdl.pth (torch, 109976 bytes, 4 tensors)

linear1.weight f4 [600, 41]
0.012926098 -0.056754388 -0.15199879 0.048479855 0.09477071 0.03458529 -0.11066287 -0.09575739
0.028379565 -0.06317373 0.08303442 0.09159133 -0.13522013 -0.047252208 -0.079664074 -0.06269952
0.065918624 0.055789754 0.013209862 0.022524863 0.14650585 0.06771808 0.09253331 0.09457067
0.047767147 0.0034981163 0.14742665 -0.15160728 0.08354598 0.16136785 -0.10209099 0.07436499
-0.03143103 0.09184642 -0.09399917 -0.041654434 -0.001600942 0.08122779 -0.08910685 -0.029538918
-0.1566365 -0.22968096 0.0029807417 0.046637367 0.10204223 -0.029036125 -0.1156764 0.05133329
0.021413349 0.043623194 -0.07200426 -0.1201647 0.011557647 0.06860356 -0.00036498904 -0.15129222
0.11789974 -0.06774313 -0.09362608 0.03617913 -0.05511125 -0.11550799 0.087721996 -0.017502502
-0.1672848 -0.022972023 -0.027425878 0.046530247 -0.20802592 -0.062384095 -0.14990135 -0.038051616
0.0069867917 0.097809546 0.034801796 -0.011957698 -0.063108765 -0.081060395 -0.14590602 -0.19786714
-0.08393726 -0.091316365 -0.057425488 -0.0025517035 0.11086283 0.105753124 0.1523464 -0.14654551
0.016724132 0.051203504 0.100941405 -0.024406662 0.12440273 0.040979583 -0.021018455 -0.14771013
-0.08573795 0.0904198 -0.021577135 -0.0017621167 0.11373912 0.0054288805 0.04372199 0.13790284
0.049487352 0.083979405 -0.031130202 -0.06338103 -0.093655914 0.08445784 -0.14662395 -0.10759196
-0.03666162 -0.15343168 -0.11931702 0.09285634 -0.06227872 0.070899524 0.050857298 0.036117304
-0.1597166 0.108009964 -0.07204458 0.037749033 -0.011913103 -0.13206773 -0.09474933 0.024554266
0.07058127 -0.058202356 0.07325576 -0.04884665 0.09255477 0.01964341 -0.0020667957 -0.010381923
-0.041441694 -0.10786563 0.08542789 0.048964858 0.053568892 -0.09296706 -0.14872563 0.12648568
-0.15482752 0.15541533 0.044365227 -0.08492371 0.06724363 -0.07256161 -0.046430122 -0.16366483
-0.17349091 -0.12621169 0.020107875 0.045432236 0.07276044 -0.12835649 -0.14258271 -0.17633401
-0.023369422 0.012368881 0.03345241 -0.0051177167 -0.16621001 -0.011624418 -0.11559023 0.107145935
-0.016318683 0.0008978056 -0.08065181 0.15172903 -0.17496121 0.09640886 -0.052360345 0.1271627
-0.0122013325 -0.022622272 -0.11016104 0.028686082 -0.046125565 0.15147701 -0.03529395 -0.10912625
-0.09141287 0.09853254 0.0945697 -0.026261128 -0.1422214 -0.048180245 -0.099539116 -0.12577568
0.16085474 -0.11139051 0.106475234 0.065522015 0.13636911 0.05085232 -0.18828093 -0.08115622
0.05385972 -0.19953367 0.043655645 -0.019611416 0.046943784 -0.20784679 -0.00016267007 -0.09594755
0.13725379 0.0012695583 -0.09092516 -0.08444121 0.119538635 0.06570901 -0.08645414 -0.15345173
-0.13518938 -0.07348138 0.07478875 0.12848818 -0.15095468 -0.03087978 -0.1843189 -0.10267712
-0.08643727 0.056930482 -0.11155366 -0.14357966 -0.09648361 -0.13146956 -0.027638972 -0.12466458
0.022730788 0.08889453 -0.14619878 0.14443624 -0.025225988 0.058074325 -0.048713997 -0.12775554
-0.10080031 0.05615163 -0.15905789 -0.014977738 -0.09445823 -0.044813022 0.063152015 -0.18072398
-0.08232557 -0.07167869 -0.125372 -0.11148682 -0.008270071 -0.11720645 -0.037801817 -0.0122919725
00000000: fcc7 533c 4a77 68bd 92a5 1bbe d092 463d
00000010: 2517 c23d 4ea9 0d3d 37a3 e2bd 731c c4bd
00000020: 437c e83c 3b61 81bd f30d aa3d 3c94 bb3d
00000030: 2577 0abe 888b 41bd eb26 a3bd 9b68 80bd
00000040: 5800 873d cc83 643d 2d6e 583c 1086 b83c
00000050: a105 163e c7af 8a3d 1b82 bd3d 44ae c13d
00000060: 7ca7 433d a740 653b 03f7 163e f03e 1bbe
00000070: 281a ab3d 9d3d 253e 1515 d1bd ac4c 983d
00000080: d3bd 00bd fa19 bc3d a382 c0bd d79d 2abd
00000090: b3d6 d1ba c15a a63d a77d b6bd 9afb f1bc
000000a0: 5265 20be 7c31 6bbe 8c58 433b d306 3f3d
000000b0: 84fb d03d 2bdd edbc c0e7 ecbd db42 523d
000000c0: 0c6b af3c 3cae 323d f876 93bd e918 f6bd
000000d0: 495c 3d3c 0680 8c3d 005c bfb9 59ec 1abe
000000e0: 6b75 f13d e9bc 8abd 08bf bfbd 9130 143d
000000f0: 56bc 61bd 748f ecbd 97a7 b33d 6861 8fbc
00000100: b54c 2bbe d32f bcbc 3cac e0bc 8096 3e3d
00000110: bf04 55be 7786 7fbd bd7f 19be 03dc 1bbd
00000120: 75f1 e43b 5f50 c83d 548c 0e3d 38ea 43bc
00000130: 2b3f 81bd fe02 a6bd 6368 15be af9d 4abe
00000140: 4ce7 abbd 1304 bbbd fd36 6bbd 7b3a 27bb
00000150: 0d0c e33d 1895 d83d b200 1c3e 0710 16be
00000160: 0c01 893c c4ba 513d 5eba ce3d 7bf0 c7bc
00000170: dcc6 fe3d 35da 273d e52e acbc 5341 17be
00000180: 6197 afbd 042e b93d 88c2 b0bc d3f6 e6ba
00000190: 0ef0 e83d c0e4 b13b d415 333d 6736 0d3e
000001a0: 40b3 4a3d 65fd ab3d c404 ffbc eacd 81bd
000001b0: acce bfbd 3bf8 ac3d 9724 16be 2c59 dcbd
000001c0: 7f2a 16bd 321d 1dbe 7b5c f4bd 772b be3d
000001d0: f917 7fbd c533 913d be4f 503d bdef 133d
000001e0: c08c 23be 5434 dd3d 1c8c 93bd bb9e 1a3d
000001f0: 2d2f 43bc c33c 07be f00b c2bd 0726 c93c
00000200: ea8c 903d 9865 6ebd 1e07 963d 6d13 48bd
00000210: 5b8d bd3d 37eb a03c 1473 07bb f118 2abc
00000220: c4be 29bd a8e8 dcbd d1f4 ae3d 608f 483d
00000230: 0e6b 5b3d 8465 bebd 884b 18be 7685 013e
00000240: 1b8b 1ebe 3225 1f3e 50b8 353d 7bec adbd
00000250: 07b7 893d 2e9b 94bd 832d 3ebd c197 27be
00000260: 9aa7 31be a33d 01be 45b9 a43c 2717 3a3d
00000270: 6d03 953d e26f 03be 3401 12be e790 34be
00000280: 3b71 bfbc d9a6 4a3c 6505 093d 85b2 a7bb
00000290: f532 2abe 5874 3ebc 92ba ecbd 546f db3d
000002a0: c2ae 85bc b75a 6b3a c72c a5bd db5e 1b3e
000002b0: 0829 33be 0272 c53d cd77 56bd f036 023e
000002c0: 19e8 47bc 5852 b9bc 1d9c e1bd 13ff ea3c
000002d0: 29ee 3cbd ca1c 1b3e 6490 10bd 957d dfbd
000002e0: ac36 bbbd 6ecb c93d c2ad c13d 9421 d7bc
000002f0: 7da2 11be a658 45bd 2adb cbbd 57cb 00be
00000300: 1bb7 243e b520 e4bd b00f da3d 6830 863d
00000310: 58a4 0b3e 864a 503d b7cc 40be 3b35 a6bd
00000320: 029c 5c3d 8e52 4cbe 43d0 323d 1fa8 a0bc
00000330: 2048 403d cad5 54be 6a92 2ab9 2680 c4bd
00000340: 428c 0c3e 4f67 a63a f836 babd 83ef acbd
00000350: acd0 f43d 7292 863d de0e b1bd 7322 1dbe
00000360: 166f 0abe 687d 96bd d82a 993d 6892 033e
00000370: dd93 1abe 98f7 fcbc 18be 3cbe 6248 d2bd
00000380: 0606 b1bd f02f 693d 3f76 e4bd 8c06 13be
00000390: 3399 c5bd f59f 06be 206b e2bc 2550 ffbd
000003a0: eb35 ba3c 560e b63d 22b5 15be 18e7 133e
000003b0: bba6 cebc 58df 6d3d 5488 47bd 59d2 02be
000003c0: 6570 cebd 40ff 653d 12e0 22be 3065 75bc
000003d0: 5173 c1bd dc8d 37bd d855 813d b50f 39be
000003e0: 4f9a a8bd 47cc 92bd 8461 00be 3453 e4bd
000003f0: 317f 07bc ef09 f0bd 14d6 1abd 4564 49bc

linear1.bias f4 [600]
0.021565998 -0.22813684 -0.008672266 -0.098969944 -0.086566076 -0.1723959 0.03898358 -0.056863815
-0.08795963 -0.06933885 0.10979901 -0.2277656 -0.05884757 0.0013788721 0.049847588 -0.13868396
0.14282554 0.15623051 -0.068796314 -0.15124762 -0.15188013 0.051840935 -0.060902927 -0.07696426
-0.054209225 -0.08711882 0.12599951 0.019496769 0.021381471 -0.13147011 -0.0656441 -0.32138103
0.01296962 -0.0412557 0.030909387 -0.104113474 -0.03681921 -0.084220484 -0.032788657 -0.15539686
-0.22766511 0.13709167 -0.16545351 -0.29019496 0.08853125 0.015083086 0.03983207 -0.08979639
-0.13667227 -0.025406526 0.10301063 0.12449188 0.031499125 -0.030473266 -0.17510124 -0.0053682774
-0.073060974 -0.20886973 -0.12695579 -0.16647969 -0.017606778 0.009602934 0.019701317 0.10844694
-0.25525776 -0.07163907 -0.24268721 -0.11351363 -0.12522186 0.24123146 0.016426161 -0.11950628
0.06351834 0.040458836 -0.21463077 0.016890181 -0.07055038 0.10847292 0.13595083 -0.26635733
-0.17992759 -0.15546906 0.14277048 -0.07327572 -0.029685456 -0.075216085 -0.16151154 0.06024576
-0.17519297 -0.28503913 -0.17432263 0.039662145 -0.07186544 -0.11045646 -0.13700375 0.119136184
-0.24924324 0.071049154 -0.23609164 -0.3256802 -0.031233948 -0.026157752 -0.29167435 0.06435988
-0.26336405 0.044316992 -0.039335534 -0.13583604 -0.062802054 -0.14420518 0.053026866 -0.045657724
0.052916054 0.100759886 -0.07350984 0.04061603 -0.112092026 0.08446595 -0.15488379 0.008365626
-0.25108588 -0.03226596 -0.06593072 -0.12556791 -0.0329341 0.117960885 0.113009006 -0.18103439
0.0977304 0.082524545 -0.16808486 0.023432055 -0.039204612 -0.1673791 -0.08655512 0.11571041
-0.038505837 -0.1750299 -0.23170386 -0.10212343 0.17311601 0.053684283 -0.054680873 -0.19602591
-0.058299664 0.046892654 0.012653234 0.020931406 -0.13427518 0.07584699 -0.030642515 -0.18098001
-0.030417379 -0.11369337 -0.011060332 -0.08268744 0.02568926 -0.0077506825 0.054611813 -0.1871427
-0.07945045 -0.1763263 0.0069898963 -0.011318915 -0.12475346 0.101796 -0.24029094 -0.057299532
0.009406076 -0.17488624 -0.20533942 0.027403757 -0.16712545 -0.11214431 -0.09773879 -0.15568836
0.021748392 -0.01109279 -0.26634517 -0.21248055 -0.25926057 -0.30560017 -0.13797528 0.027226793
-0.04124114 0.059358805 0.15855491 -0.074342355 0.07288532 -0.12099868 -0.0034566254 -0.27303958
-0.0016356462 -0.0054620793 0.14223436 0.12820637 -0.092258535 -0.04185421 0.08655297 -0.12353848
-0.018913098 -0.053017892 -0.09198958 -0.01495982 0.07984563 0.017267564 -0.2631622 -0.33683577
-0.19299696 0.14775667 -0.11565014 -0.09840636 -0.008561555 -0.1289674 0.115025476 0.029038712
-0.07407301 -0.007466905 -0.094960116 -0.12782788 0.052960053 0.25389156 -0.18998085 -0.006576949
-0.15730499 0.10044219 -0.04538927 0.22300218 0.1545299 -0.09680839 -0.22297852 -0.1220395
-0.06822598 -0.07042682 -0.062130585 0.07520054 -0.13199098 -0.14593537 -0.16371894 0.09585199
0.009386979 -0.09430382 0.027935334 -0.060774412 -0.08175196 -0.093848735 -0.047822755 0.026109379
0.13940042 0.065149814 -0.06261126 0.085767105 0.090376094 -0.08270821 -0.17815255 0.042081162
00000000: 2dab b03c b49c 69be 1f16 0ebc c1b0 cabd
00000010: 8e49 b1bd 8d88 30be 3fad 1f3d 08ea 68bd
00000020: 2e24 b4bd 8701 8ebd 4ede e03d 633b 69be
00000030: 260a 71bd 45bb b43a fc2c 4c3d 2b03 0ebe
00000040: dc40 123e e4fa 1f3e 15e5 8cbd a8e0 1abe
00000050: 7786 1bbe 2957 543d 5975 79bd 709f 9dbd
00000060: 7e0a 5ebd 5a6b b2bd 0406 013e b0b7 9f3c
00000070: 3228 af3c 1aa0 06be 6a70 86bd 0e8c a4be
00000080: 877e 543c bdfb 28bd af35 fd3c 7239 d5bd
00000090: bdcf 16bd ca7b acbd 664d 06bd 5b20 1fbe
000000a0: 0b21 69be c261 0c3e a56c 29be 6f94 94be
000000b0: df4f b53d 0c1f 773c f426 233d 2be7 b7bd
000000c0: d1f3 0bbe 5921 d0bc 3df7 d23d 99f5 fe3d
000000d0: 3a05 013d 12a3 f9bc bd4d 33be 60e8 afbb
000000e0: fea0 95bd f2e1 55be b300 02be a779 2abe
000000f0: 173c 90bc a055 1d3c a864 a13c 6e19 de3d
00000100: 25b1 82be 81b7 92bd ff82 78be d679 e8bd
00000110: 293a 00be 6105 773e 2890 863c b5bf f4bd
00000120: e715 823d 2ab8 253d 2bc8 5bbe 475d 8a3c
00000130: b87c 90bd 0d27 de3d b236 0b3e fd5f 88be
00000140: f03e 38be 4833 1fbe 6d32 123e 9511 96bd
00000150: ea2e f3bc e40a 9abd 4863 25be 42c4 763d
00000160: c965 33be a6f0 91be a281 32be c674 223d
00000170: 302e 93bd ff36 e2bd b64a 0cbe acfd f33d
00000180: 9f39 7fbe 3882 913d 02c2 71be 8ebf a6be
00000190: 56de ffbc c848 d6bc 5756 95be 1dcf 833d
000001a0: a7d7 86be bc85 353d 4c1e 21bd 9a18 0bbe
000001b0: 5d9e 80bd 86aa 13be b332 593d 9803 3bbd
000001c0: 81be 583d 335b ce3d 548c 96bd ff5c 263d
000001d0: 8190 e5bd 7cfc ac3d db99 1ebe fb0f 093c
000001e0: 548e 80be 5029 04bd af06 87bd e094 00be
000001f0: e8e5 06bd 7a95 f13d 4471 e73d 1461 39be
00000200: e026 c83d a102 a93d 701e 2cbe 95f4 bf3c
00000210: 0495 20bd 6d65 2bbe d043 b1bd 94f9 ec3d
00000220: 4cb8 1dbd 0a3b 33be c743 6dbe 1726 d1bd
00000230: 5345 313e 0de4 5b3d 0df9 5fbd 04bb 48be
00000240: a1cb 6ebd 8312 403d 834f 4f3c 5778 ab3c
00000250: 6f7f 09be ab55 9b3d 0306 fbbc d352 39be
00000260: de2d f9bc 12d8 e8bd 6536 35bc 0858 a9bd
00000270: 4872 d23c 70f9 fdbb a3b0 5f3d 56a2 3fbe
00000280: ebb6 a2bd e28e 34be 800b e53b f872 39bc
00000290: be7e ffbd 6c7a d03d d40e 76be eab2 6abd
000002a0: f11b 1a3c 6115 33be 7f44 52be d87d e03c
000002b0: ef22 2bbe eaab e5bd 462b c8bd c56c 1fbe
000002c0: af29 b23c 89be 35bc 655e 88be 8094 59be
000002d0: cdbd 84be a077 9cbe 6449 0dbe b90a df3c
000002e0: 78ec 28bd 3822 733d 385c 223e ce40 98bd
000002f0: e644 953d 28ce f7bd 8d88 62bb d8cb 8bbe
00000300: 2e63 d6ba 3efb b2bb e2a5 113e 8848 033e
00000310: 0bf2 bcbd 526f 2bbd af42 b13d be01 fdbd
00000320: a4ef 9abc 4a29 59bd 0865 bcbd 081a 75bc
00000330: 1b86 a33d b574 8d3c 32bd 86be bd75 acbe
00000340: ffa0 45be 864d 173e fbd9 ecbd 4689 c9bd
00000350: c445 0cbc 0810 04be 7a92 eb3d 98e2 ed3c
00000360: 97b3 97bd f0ac f4bb 737a c2bd 50e5 02be
00000370: a4ec 583d 13fe 813e 578a 42be 7283 d7bb
00000380: 8f14 21be a3b4 cd3d 19ea 39bd af5a 643e
00000390: 163d 1e3e 7a43 c6bd 7b54 64be d8ef f9bd
000003a0: 10ba 8bbd f03b 90bd a47c 7ebd be02 9a3d
000003b0: a528 07be 1570 15be f0a5 27be 0c4e c43d
000003c0: d8cb 193c 5c22 c1bd a4d8 e43c 97ee 78bd
000003d0: 926d a7bd c433 c0bd cbe1 43bd 56e3 d53c
000003e0: fcbe 0e3e 446d 853d 553a 80bd aaa6 af3d
000003f0: 1a17 b93d ec62 a9bd 9f6d 36be 4c5d 2c3d

linear2.weight f4 [3, 600]
-0.06559903 -0.014098892 -0.024629736 -0.018983645 -0.02604078 0.015478051 -0.030454447 0.03481266
-0.048909035 0.0032601573 -0.12857398 -0.00976838 0.0034638084 -0.0012855394 -0.017737241 -0.021101715
0.009565778 -0.06996643 -0.0076050945 -0.006761998 0.023348518 -0.03292428 -0.043707117 -0.0005870499
-0.082517594 -0.010952701 -0.0009536418 0.038761497 -0.009444156 -0.007128778 0.0344807 -0.011962494
-0.0072617847 -0.025983684 0.014354755 -0.042756684 0.0053107943 -0.038065597 -0.0003232509 0.04141263
-0.0033071071 0.022470301 -0.025588345 -0.019949717 0.0018035998 -0.012196061 0.014326219 -0.02648996
0.019876463 -0.057895906 0.00052199117 0.010047649 0.001845627 -0.027720988 -0.011327606 0.031135887
-0.021589998 -0.021197546 -0.038635805 0.01993637 -0.0008894327 -0.003620665 -0.016475273 -0.030516947
-0.021632373 0.01648184 -0.015853612 -0.0076940428 -0.007609807 -0.15390961 -0.018028209 0.011400359
-0.022841211 -0.013140835 -0.013519384 0.024648309 -0.053657886 -0.04960686 0.010613039 -0.045559827
-0.033675887 -0.02543408 0.012182751 -0.023524005 -0.013581929 -0.02147292 -0.013353606 0.02274202
-0.008415613 -0.043895256 0.0049765566 -0.0022687193 -0.0015949764 -0.032743346 -0.017785478 -0.058329303
-0.020163843 0.012781318 -0.012338018 -0.052655675 -0.026153054 -0.0004656203 -0.034876272 0.0041997065
-0.007916129 -0.031510428 -0.024851954 -0.018210812 -0.032668952 -0.04367455 0.010219718 -0.053783357
-0.03277391 -0.028824996 -0.030332472 0.029750353 -0.014614905 -0.019862022 -0.0077104867 0.021366209
-0.048736744 0.017714314 -0.016496811 -0.04572211 -0.017225778 0.01143282 0.018920965 -0.012667514
-0.009493086 -0.012069333 -0.028131492 -0.031906858 0.0017028428 -0.0013355346 -0.0068963626 -0.026777327
-0.023521343 -0.024388712 -0.01733314 -0.040369716 0.03550869 -0.0018701366 0.006345844 -0.0060964255
-0.04452768 -0.0063126143 -0.0011358878 0.083155245 -0.025733352 -0.028703302 -0.003635489 -0.03197331
-0.0111235 -0.0134586925 -0.006125817 -0.047150012 0.009244908 0.013246688 0.017824424 -0.026010359
0.00799382 -0.012551391 0.006698977 -0.023040848 -0.018936275 -0.022590505 -0.016462004 -0.03833438
-0.03453911 -0.013940183 0.023854446 0.005293951 0.021656245 -0.002420781 0.08261483 0.033353955
-0.015589044 0.009886284 -0.020079158 -0.017597146 -0.02546063 -0.042993046 0.031072013 -0.015605075
-0.032214962 -0.012061477 0.018252622 0.014991686 0.0022311397 -0.009510444 0.01121928 -0.030588517
-0.012383877 -0.0069414927 -0.058448944 -0.086765215 -0.028583407 -0.009689828 -0.030513957 0.037530735
0.028613176 0.02751445 0.024622327 -0.022487354 0.04403247 -0.013300769 -0.04243593 -0.03509394
0.002520894 -0.006090265 0.00504677 0.013524581 0.003902839 -0.021821277 -0.005504099 -0.019023577
-0.033666324 -0.059612483 0.0052962527 0.0018414222 0.013929047 0.076458134 -0.010526433 -0.040063005
-0.03082535 0.032687176 0.00705769 0.084290154 0.009481382 -0.0072107115 -0.028845198 0.007744305
-0.012766256 -0.009170153 -0.01590721 -0.024400797 -0.015405598 -0.030614138 -0.022577625 -0.0022847787
-0.0024165257 0.028377183 -0.005904369 -0.024451494 -0.035695292 -0.020644518 -0.028521027 0.020353528
-0.028447565 -0.0275899 -0.022267118 0.012241758 -0.050460372 -0.021728145 -0.023937501 0.008639485
00000000: c958 86bd 0aff 66bc 4dc4 c9bc 9783 9bbc
00000010: 7953 d5bc a797 7d3c 9b7b f9bc b897 0e3d
00000020: d754 48bd 5da8 553b e6a8 03be 8e0b 20bc
00000030: 1001 633b 8b7f a8ba b14d 91bc 81dd acbc
00000040: c8b9 1c3c 8f4a 8fbd 2834 f9bb c093 ddbb
00000050: 6445 bf3c 9cdb 06bd 3c06 33bd 40e4 19ba
00000060: fcfe a8bd f572 33bc d1fd 79ba 60c4 1e3d
00000070: a9bb 1abc 8698 e9bb a23b 0d3d 56fe 43bc
00000080: 44f4 edbb bcdb d4bc 3530 6b3c a221 2fbd
00000090: 2c06 ae3b acea 1bbd 007a a9b9 4aa0 293d
000000a0: 0dbc 58bb a313 b83c a69e d1bc 976d a3bc
000000b0: c466 ec3a fdd1 47bc 85b8 6a3c 7901 d9bc
000000c0: f7d3 a23c 4224 6dbd 3cd6 083a e59e 243c
000000d0: f7e8 f13a 2017 e3bc 6c97 39bc b010 ff3c
000000e0: 82dd b0bc 7aa6 adbc 9440 1ebd 9951 a33c
000000f0: d128 69ba ae48 6dbb 27f7 86bc adfe f9bc
00000100: 6036 b1bc ec04 873c 6fdf 81bc 4f1e fcbb
00000110: b05b f9bb 7b9a 1dbe e5af 93bc 92c8 3a3c
00000120: 7e1d bbbc a84c 57bc 6880 5dbc 40eb c93c
00000130: 5fc8 5bbd 9030 4bbd 50e2 2d3c f19c 3abd
00000140: baef 09bd 225b d0bc 299a 473c 6ab5 c0bc
00000150: bd86 5ebc fae7 afbc 15c9 5abc 794d ba3c
00000160: a4e1 09bc 83cb 33bd 6212 a33b cbae 14bb
00000170: 870e d1ba e31d 06bd dab2 91bc b5ea 6ebd
00000180: a52e a5bc bc68 513c 6625 4abc 7aad 57bd
00000190: ee3e d6bc 801e f4b9 6cda 0ebd b19d 893b
000001a0: a7b2 01bc 1411 01bd 5396 cbbc d72e 95bc
000001b0: e1cf 05bd 16e4 32bd 9b70 273c f04b 5cbd
000001c0: ef3d 06bd 6622 ecbc ce7b f8bc 03b7 f33c
000001d0: 5b73 6fbc aeb5 a2bc 40a8 fcbb 3008 af3c
000001e0: 2ea0 47bd 9c1d 913c 5224 87bc 1b47 3bbd
000001f0: 131d 8dbc b950 3b3c 2400 9b3c 688b 4fbc
00000200: e388 1bbc 74be 45bc 0474 e6bc c4b0 02bd
00000210: ec31 df3a 1b0d afba e2fa e1bb 205c dbbc
00000220: d5af c0bc d6ca c7bc 3bfe 8dbc b75a 25bd
00000230: 8f71 113d 5f1f f5ba ccf0 cf3b 86c4 c7bb
00000240: a862 36bd 0cda cebb 12e2 94ba 4c4d aa3d
00000250: c0ce d2bc 3023 ebbc 6241 6ebb 72f6 02bd
00000260: 573f 36bc d981 5cbc 14bb c8bb 5f20 41bd
00000270: f477 173c a308 593c 8704 923c ad13 d5bc
00000280: 83f8 023c 59a4 4dbc 1883 db3b 29c0 bcbc
00000290: 3f20 9bbc b90f b9bc 53db 86bc 8304 1dbd
000002a0: e278 0dbd 5e65 64bc 666a c33c e178 ad3b
000002b0: 7068 b13c f7a5 1ebb f731 a93d 289e 083d
000002c0: 3169 7fbc 15fa 213c 0c7d a4bc e427 90bc
000002d0: d092 d0bc 7a19 30bd bc8a fe3c 6eac 7fbc
000002e0: d6f3 03bd 809d 45bc 8686 953c b09f 753c
000002f0: 5038 123b b1d1 1bbc 12d1 373c c594 fabc
00000300: bfe5 4abc 7675 e3bb 2968 6fbd f6b1 b1bd
00000310: c027 eabc 16c2 1ebc 68f8 f9bc d4b9 193d
00000320: 2e66 ea3c fc65 e13c c3b4 c93c 6637 b8bc
00000330: 645b 343d 78eb 59bc 4cd1 2dbd aabe 0fbd
00000340: 9535 253b d890 c7bb 605f a53b 3496 5d3c
00000350: c6c6 7f3b 89c2 b2bc bb5b b4bb 55d7 9bbc
00000360: b3e5 09bd 382c 74bd 308c ad3b e05b f13a
00000370: a836 643c 1596 9c3d 0f77 2cbc 1b19 24bd
00000380: 7285 fcbc fde2 053d 3244 e73b 51a0 ac3d
00000390: cc57 1b3c d547 ecbb c44c ecbc f0c3 fd3b
000003a0: 8f29 51bc 693e 16bc d64f 82bc 2ee4 c7bc
000003b0: c367 7cbc 80ca fabc b6f4 b8bc 3abc 15bb
000003c0: 935e 1ebb 4477 e83c 7079 c1bb 804e c8bc
000003d0: 3a35 12bd b11e a9bc eea4 e9bc 71bc a63c
000003e0: de0a e9bc 3704 e2bc 8869 b6bc a891 483c
000003f0: 89af 4ebd 39ff b1bc 9418 c4bc a08c 0d3c

linear2.bias f4 [3]
0.048915166 -0.030921618 0.0016312673
00000000: 455b 483d 554f fdbc 3fd0 d53a
